qnetwork_local.pth (torch, 46542 bytes, 6 tensors)

fc1.weight f4 [100, 6]
0.48395064 -0.7096697 -0.15473606 0.24002594 0.35299808 -0.019022813 0.2810122 -0.7733836
0.10053259 0.28503746 -0.3902438 -0.16896108 0.048184425 1.1334422 0.4457917 -0.12344432
0.14307952 -0.16086182 -0.18898556 0.36939836 -0.2703205 0.36892134 0.018497169 0.08962089
-0.027246118 -0.26286706 -0.20621474 -0.2255748 -0.0007522106 0.33893824 0.12803775 -0.5382628
0.19183306 0.17434382 -0.29527816 0.16069302 -0.33005565 -1.069162 0.257504 0.3002187
-0.11748707 0.16249114 -0.092930384 0.9427422 0.03847528 0.15818703 0.052154124 -0.11486961
0.06277076 -0.2219104 -0.063539185 0.30642706 0.12076253 0.3462433 -0.4063602 0.7303195
0.3393125 -0.11946696 -0.3361864 0.34280643 -0.16918811 -0.10321733 -0.054406196 -0.13010323
-0.32158148 0.36130244 -0.037455436 -0.63729423 0.033840228 0.37866133 -0.12509188 0.15712449
0.22437918 -0.058323145 -0.35451415 0.14343613 -0.39093435 0.35818195 -0.2647516 0.097041905
-0.25578892 0.29118615 -0.055300117 0.41832182 0.015931657 -1.2887408 -0.22096713 0.15600121
0.28510588 -0.17049727 0.1116108 -0.44008252 0.14067598 0.14664984 -0.15614629 -0.24112895
-0.11162994 -1.3042365 -0.13218118 0.3125038 -0.35230744 0.07393916 0.5167451 -1.2357708
0.029214753 0.25220484 -0.36328834 0.18670654 -0.23354039 0.06782076 -0.04759565 -0.36577404
0.17299855 0.07398754 0.085014835 0.29136443 0.45496055 -0.046485484 0.030383438 -0.008225859
0.11933631 0.2631961 -0.38754857 -0.30577767 -0.2646712 -0.32208267 0.17250414 -0.075680554
0.43554118 -0.39046368 -0.05095917 0.24942787 0.038855795 -1.5322224 -0.19360895 -0.39311248
0.119689405 -0.21256241 0.17495625 0.26275042 -0.1747987 0.1549629 -0.018593907 -0.3092696
-0.4525518 -0.19827892 0.40843618 -0.23617166 0.22721112 0.39309984 0.36018592 -0.06858857
0.09847594 -0.023112208 -0.13671696 0.37854066 0.2865576 -1.5828481 -0.3051696 0.39611346
0.12784743 0.34578896 0.5819842 1.0129263 0.2696325 -0.048237354 -0.15544209 -0.26628035
-0.026616164 -1.286618 -0.23176873 -0.0686118 -0.293009 0.31668016 -0.22708096 0.02731356
-0.5531903 -0.06788516 -0.102880746 0.20323884 0.2284089 -0.30680877 0.35854077 -0.29623574
0.050129294 0.3452804 -0.39322093 0.6250252 0.3532051 -0.17752127 -0.030725747 -0.023746558
-0.1586647 -0.1216062 -0.21566077 0.024549097 0.23317838 -0.40246356 0.28614736 -0.8393334
-0.11527135 -0.32810643 0.099871874 0.15455525 0.12787794 0.8817771 0.44443682 0.20995378
0.02730465 -0.2532573 0.013278693 -0.35081026 0.10982698 0.06491652 0.1839664 -0.016605139
-0.5545211 0.36787838 0.20203182 0.26239496 0.20179123 -0.2916325 -0.035365276 -0.4595463
0.10893933 0.33597213 0.30495065 0.3638929 0.57855755 -0.3366603 0.2587718 0.21116143
-0.13325918 0.19653231 -0.65121156 -0.09340325 0.36096865 -0.040619403 0.1403749 -0.23023562
-0.58200127 1.068733 0.138276 0.0491468 0.36731422 -0.03155556 -0.09070197 -1.4602292
-0.021631608 -0.20244685 0.3094417 -0.20791301 0.37145773 -1.2969952 -0.30747154 -0.34672052
00000000: 61c8 f73e eaac 35bf 2173 1ebe 5cc9 753e
00000010: 2abc b43e bbd5 9bbc d5e0 8f3e 78fc 45bf
00000020: 08e4 cd3d 6ef0 913e 09ce c7be 2204 2dbe
00000030: 085d 453d a214 913f cf3e e43e 60d0 fcbd
00000040: 7083 123e f6b8 24be 6e85 41be c821 bd3e
00000050: 7367 8abe 42e3 bc3e 6087 973c 288b b73d
00000060: 4033 dfbc 8396 86be f529 53be 15fd 66be
00000070: 0030 45ba 5089 ad3e 541c 033e 97cb 09bf
00000080: e36f 443e 3087 323e b32e 97be b68c 243e
00000090: 0efd a8be 4dda 88bf 90d7 833e 44b6 993e
000000a0: 109d f0bd 1464 263e 4952 bebd 8e57 713f
000000b0: 4198 1d3d c8fb 213e 909f 553d c240 ebbd
000000c0: f58d 803d 7b3c 63be d520 82bd 02e4 9c3e
000000d0: 5852 f73d cd46 b13e 720e d0be 38f6 3a3f
000000e0: 5eba ad3e 18ab f4bd a020 acbe 5384 af3e
000000f0: a63f 2dbe 9c63 d3bd 08d9 5ebd c839 05be
00000100: 54a6 a4be a2fc b83e df6a 19bd b725 23bf
00000110: 0d9c 0a3d e6df c13e 1618 00be 3ee5 203e
00000120: a8c3 653e 40e4 6ebd e182 b5be ece0 123e
00000130: 8c28 c8be a063 b73e 868d 87be e8bd c63d
00000140: c4f6 82be 5a16 953e 6082 62bd 472e d63e
00000150: 1b83 823c 75f5 a4bf 3545 62be c8be 1f3e
00000160: 66f9 913e d696 2ebe 3494 e43d 7f52 e1be
00000170: 5d0d 103e 602b 163e d0e4 1fbe 82ea 76be
00000180: 3d9e e4bd 39f1 a6bf 815a 07be 8000 a03e
00000190: a461 b4be 6a6d 973d 6849 043f bd2d 9ebf
000001a0: c753 ef3c fe20 813e ee00 babe 0030 3f3e
000001b0: 3625 6fbe 9ce5 8a3d a8f3 42bd bc46 bbbe
000001c0: 8826 313e c886 973d 421c ae3d b82d 953e
000001d0: 97f0 e83e 9067 3ebd b0e6 f83c c1c5 06bc
000001e0: 9866 f43d a4c1 863e c46c c6be e48e 9cbe
000001f0: fc82 87be 05e8 a4be eda4 303e 68fe 9abd
00000200: 41ff de3e dbea c7be 90ba 50bd 056a 7f3e
00000210: 4127 1f3d dd1f c4bf 6d41 46be 0a46 c9be
00000220: b81f f53d f6a9 59be bb27 333e 3987 863e
00000230: 6efe 32be 98ae 1e3e 4052 98bc 9658 9ebe
00000240: dfb4 e7be a109 4bbe 8c1e d13e fcd6 71be
00000250: 08aa 683e 6244 c93e 4a6a b83e 2a78 8cbd
00000260: c1ad c93d d055 bdbc 88ff 0bbe 15d0 c13e
00000270: aeb7 923e c49a cabf 313f 9cbe 62cf ca3e
00000280: 70ea 023e 400b b13e ebfc 143f 92a7 813f
00000290: 450d 8a3e 8894 45bd 362c 1fbe e655 88be
000002a0: 240a dabc e6af a4bf c854 6dbe 5884 8cbd
000002b0: 4705 96be e723 a23e e987 68be b0c0 df3c
000002c0: e19d 0dbf 6007 8bbd 24b3 d2bd d81d 503e
000002d0: 06e4 693e 0a16 9dbe a892 b73e 36ac 97be
000002e0: 6054 4d3d 98c8 b03e 4154 c9be a701 203f
000002f0: 4dd7 b43e 23c8 35be 90b4 fbbc 2488 c2bc
00000300: 0079 22be ac0c f9bd 2dd6 5cbe 301b c93c
00000310: 50c6 6e3e b40f cebe e881 923e 8ede 56bf
00000320: 6313 ecbd 91fd a7be a089 cc3d bb43 1e3e
00000330: 6ff2 023e 25bc 613f 398d e33e 20fe 563e
00000340: 00ae df3c f1aa 81be e08e 593c 679d b3be
00000350: f8ec e03d f4f2 843d b061 3c3e 8007 88bc
00000360: 18f5 0dbf 8e5a bc3e 6ee1 4e3e a258 863e
00000370: 5ca2 4e3e db50 95be 2edb 10bd a749 ebbe
00000380: 951b df3d 8a04 ac3e 7e22 9c3e 2c50 ba3e
00000390: 591c 143f bd5e acbe bd7d 843e b43a 583e
000003a0: 1875 08be c43f 493e cdb5 26bf 344a bfbd
000003b0: e2d0 b83e 8860 26bd 70be 0f3e e3c2 6bbe
000003c0: 09fe 14bf 3ecc 883f 3998 0d3e 284e 493d
000003d0: 9c10 bc3e 6740 01bd f4c1 b9bd cae8 babf
000003e0: c534 b1bc 3a4e 4fbe 246f 9e3e 26e7 54be
000003f0: b52f be3e f003 a6bf e96c 9dbe 5a85 b1be

fc1.bias f4 [100]
0.2541742 0.0064418134 -0.13437633 -0.2392054 -0.23583172 0.21427986 0.15488505 0.37814534
-0.15184584 0.33029824 -0.36232254 0.26659366 -0.3630714 -0.08609106 0.392051 0.35894614
0.29740122 0.28075948 -0.3358545 -0.1712091 -0.16229907 -0.361094 0.24370466 -0.24753603
0.3749907 -0.2538757 0.2746284 -0.4084828 0.3346765 0.23068865 -0.34128216 -0.06016084
-0.18375239 0.31203374 -0.1719356 -0.37278184 0.14594132 0.42629385 -0.09862099 0.07519181
0.21507896 0.20404954 0.0954224 0.4482013 0.19030745 0.35476506 0.21827683 0.18494244
-0.051801372 0.24925977 0.36527064 0.09560452 0.10516394 0.12583172 0.4052879 0.23841868
0.024862919 -0.05235407 0.40876478 0.3930136 0.48967275 -0.2932679 -0.010466222 0.28986642
0.3305789 0.44582278 0.42420864 0.050312784 -0.07217849 -0.3694523 -0.34975505 -0.3943444
0.1783008 0.12627818 -0.16601102 -0.25805032 0.46104103 -0.03740211 -0.042145222 0.44504744
0.15424556 0.2767136 0.11177057 0.05544199 -0.2928801 0.2689569 0.11818284 0.228087
0.17728496 0.1352577 -0.34573525 0.42945808 -0.27993965 -0.33459008 -0.39815024 0.3763354
0.41262668 -0.30055746 0.42499372 0.023615295
00000000: 1f23 823e d915 d33b f399 09be 43f2 74be
00000010: df7d 71be 2e6c 5b3e 309a 1e3e 449c c13e
00000020: 7a7d 1bbe da1c a93e 5782 b9be f77e 883e
00000030: 7fe4 b9be 8250 b0bd e9ba c83e cac7 b73e
00000040: f944 983e b5bf 8f3e 1ff5 abbe 7051 2fbe
00000050: ba31 26be 50e1 b8be b78d 793e 167a 7dbe
00000060: c8fe bf3e fffb 81be 189c 8c3e a824 d1be
00000070: b85a ab3e a539 6c3e 89bc aebe 376b 76bd
00000080: 9629 3cbe e3c2 9f3e e30f 30be 43dd bebe
00000090: a471 153e 3043 da3e cdf9 c9bd 2afe 993d
000000a0: a93d 5c3e 5df2 503e d26c c33d a47a e53e
000000b0: f5df 423e c4a3 b53e f683 5f3e 8d61 3d3e
000000c0: ad2d 54bd f43d 7f3e c104 bb3e 4dcc c33d
000000d0: 3160 d73d 08da 003e e581 cf3e 0724 743e
000000e0: 52ad cb3c 3971 56bd 9e49 d13e 1439 c93e
000000f0: 63b6 fa3e 3627 96be 847a 2bbc 5f69 943e
00000100: a341 a93e e242 e43e e031 d93e c714 4e3d
00000110: 51d2 93bd da28 bdbe 1813 b3be 82e7 c9be
00000120: 7c94 363e 114f 013e cbfe 29be 2c1f 84be
00000130: 920d ec3e f432 19bd 78a0 2cbd 42dd e33e
00000140: 8cf2 1d3e 68ad 8d3e f8e7 e43d 2417 633d
00000150: 61f4 95be b8b4 893e d809 f23d a38f 693e
00000160: 308a 353e ff80 0a3e 3604 b1be eee1 db3e
00000170: 4054 8fbe 644f abbe 59da cbbe 09af c03e
00000180: ce43 d33e abe2 99be c798 d93e dd74 c13c

fc2.weight f4 [100, 100]
0.181441 0.050191488 -0.5879552 0.09539314 0.00015209615 0.053234626 -0.039679687 -0.039990064
0.0720454 -0.029650545 -0.034653924 -0.015348946 0.09976912 0.0049264533 0.18936975 0.08774378
0.14837402 0.11687197 0.084047265 -0.3286428 -0.025618099 -0.0313825 0.28949174 0.09382316
-0.0209032 -0.11756329 0.37325865 -0.4600633 0.2427402 -0.5072584 -0.09002209 -0.5616717
-0.02008579 0.1279301 -0.28289813 0.06788891 -0.41802916 0.08048945 0.04644765 -0.35843956
-0.20358759 0.18626297 0.35210586 0.008008386 -0.4804361 0.10008312 0.12185075 -0.5671334
-0.02954105 -0.0061915545 0.18095395 -0.066960305 -0.23445751 -0.47994706 0.11404464 0.09171797
-0.41705045 0.18822786 0.28344423 -0.05025858 0.045357075 -0.08368518 -0.33668244 -0.33859035
-0.2565455 0.05935315 -0.009961511 -0.35071102 -0.19099182 -0.049242783 -0.079483055 -0.07773711
-0.022347528 -0.30287778 -0.27983394 -0.08914063 -0.034963902 -0.42136928 0.012578115 0.2275407
-0.504159 0.09166199 0.11745074 -0.13790786 0.09613008 0.0700047 0.16135123 -0.60144603
0.0612552 0.11199616 0.09207823 0.20881642 -0.04437026 -0.048993517 0.054143317 0.1609436
0.07705035 -0.016548418 0.071413204 -0.58711106 -0.036785845 -0.0170397 -0.0977656 0.016698167
-0.08604083 0.06396933 -0.099883355 -0.10078979 0.009028219 -0.0694883 -0.06597333 -0.08395465
-0.048259545 0.0028364658 0.0032179772 0.00024839825 -0.0056311125 -0.10925673 0.09347672 0.040285964
-0.06428788 -0.09117785 -0.08912138 0.0117637515 -0.019344736 -0.07468681 0.076924145 0.025369072
0.074561454 0.03775827 -0.099155664 0.060842965 -0.024344787 -0.028509237 -0.09815955 0.036635168
0.011769358 0.052930333 -0.09055328 0.002961136 0.06614009 -0.102155454 0.0993238 -0.063414596
-0.01622083 -0.017339231 -0.10200359 0.041226216 0.07395392 0.028025351 0.006783341 0.02112792
-0.02789969 -0.08706836 0.038300347 0.081095286 -0.022487208 0.011626586 -0.04125527 -0.024481703
0.07766677 0.038574286 -0.050399352 -0.013172388 -0.051974367 -0.02925482 0.03934311 0.027812405
-0.012645567 0.04753921 -0.019624397 -0.020815834 -0.051364165 -0.04365903 -0.076062046 0.041497268
-0.0877996 -0.08972234 -0.06281325 0.0079883635 0.04743249 -0.021010494 0.06375671 0.05581825
-0.038195815 0.060429297 -0.07140085 0.04383614 0.024947474 0.07326143 -0.023990676 -0.050420042
-0.08289875 -0.0058428645 -0.08198452 -0.0731086 0.021658074 -0.04432955 0.04142864 -0.08841391
-0.096070044 -0.10780855 -0.0920416 -0.0937863 -0.09218985 0.06103289 -0.051009573 0.06253894
0.037757345 0.054640707 0.074105956 -0.06518695 -0.08571607 -0.07870062 -0.033272617 -0.036789913
-0.008552741 0.009702744 0.082777984 0.027820982 0.06990709 0.039270528 0.07014785 -0.09925883
-0.09687562 0.007843256 -0.0155053055 0.05534391 0.008406167 0.14681305 -0.051425006 0.0022028298
-0.074878834 -0.090939656 -0.0498437 -0.09255584 -0.10304827 -0.09271277 -0.030473497 0.01630823
-0.09676102 -0.07216872 -0.0036758408 -0.049945433 -0.020968083 -0.10687855 -0.035800908 -0.048997797
0.013156722 -0.0061954986 -0.048253953 0.057296585 0.0070910393 -0.004821139 -0.0896535 0.07210118
00000000: abcb 393e 9795 4d3d 3b84 16bf 7b5d c33d
00000010: 007c 1f39 8d0c 5a3d 2b87 22bd 9fcc 23bd
00000020: 8a8c 933d b3e5 f2bc 46f1 0dbd 257a 7bbc
00000030: c153 cc3d 166e a13b 25ea 413e 03b3 b33d
00000040: 5cef 173e 925a ef3d f920 ac3d de43 a8be
00000050: 0cdd d1bc f08a 00bd 4338 943e 5b26 c03d
00000060: 303d abbc 06c5 f0bd c21b bf3e 6b8d ebbe
00000070: e390 783e b0db 01bf 805d b8bd b7c9 0fbf
00000080: f48a a4bc 1c00 033e 06d8 90be 5709 8b3d
00000090: eb07 d6be a7d7 a43d e43f 3e3d 6485 b7be
000000a0: 4479 50be b8bb 3e3e 3847 b43e 9b35 033c
000000b0: b8fb f5be 61f8 cc3d e38c f93d a82f 11bf
000000c0: 1200 f2bc 86e2 cabb fe4b 393e 7c22 89bd
000000d0: a115 70be 9fbb f5be 3c90 e93d a2d6 bb3d
000000e0: a387 d5be cebe 403e 9a1f 913e f1db 4dbd
000000f0: 57c8 393d 2363 abbd a461 acbe b75b adbe
00000100: ef59 83be 4a1c 733d 9b35 23bc 6590 b3be
00000110: 5c93 43be cdb2 49bd 03c8 a2bd a234 9fbd
00000120: 2a12 b7bc cc12 9bbe 6546 8fbe 5d8f b6bd
00000130: 4f36 0fbd b7bd d7be 7014 4e3c 6e00 693e
00000140: 9010 01bf 48b9 bb3d 038a f03d b837 0dbe
00000150: d9df c43d a05e 8f3d 4239 253e 5ef8 19bf
00000160: bce6 7a3d 3e5e e53d 8393 bc3d f9d3 553e
00000170: 97bd 35bd 6dad 48bd 62c5 5d3d 66ce 243e
00000180: 93cc 9d3d 8c90 87bc 1641 923d e94c 16bf
00000190: c1ac 16bd d796 8bbc 5539 c8bd 98ca 883c
000001a0: 2d36 b0bd 5a02 833d a58f ccbd e16a cebd
000001b0: 18eb 133c e24f 8ebd 061d 87bd 6af0 abbd
000001c0: cdab 45bd 00e4 393b b3e4 523b 733b 8239
000001d0: 3285 b8bb fec1 dfbd b970 bf3d e502 253d
000001e0: 5da9 83bd 74bb babd 4585 b6bd c0bc 403c
000001f0: da78 9ebc 66f5 98bd 688a 9d3d cdd2 cf3c
00000200: adb3 983d 6aa8 1a3d 2012 cbbd 7936 793d
00000210: b86e c7bc 348c e9bc e007 c9bd c20e 163d
00000220: 44d4 403c 7acd 583d 0074 b9bd 9e0f 423b
00000230: 7574 873d e136 d1bd 476a cb3d 83df 81bd
00000240: 8ce1 84bc 010b 8ebc 42e7 d0bd d2dc 283d
00000250: 2775 973d 6c95 e53c ca46 de3b 7614 ad3c
00000260: e48d e4bc e550 b2bd d3e0 1c3d 4915 a63d
00000270: 1837 b8bc 707d 3e3c 49fb 28bd da8d c8bc
00000280: c10f 9f3d 1200 1e3d 8d6f 4ebd 00d1 57bc
00000290: 13e3 54bd cea7 efbc 3e26 213d d7d6 e33c
000002a0: 5a2f 4fbc 7ab8 423d 58c3 a0bc f885 aabc
000002b0: 3b63 52bd d0d3 32bd 6bc6 9bbd 0af9 293d
000002c0: 47d0 b3bd 59c0 b7bd 3ca4 80bd a0e1 023c
000002d0: 9248 423d 331e acbc e192 823d ada1 643d
000002e0: 3773 1cbd b684 773d 9c3a 92bd 868d 333d
000002f0: a55e cc3c 170a 963d 1888 c4bc 3f85 4ebd
00000300: d2c6 a9bd 8075 bfbb 80e7 a7bd f6b9 95bd
00000310: 466c b13c e792 35bd 14b1 293d 5a12 b5bd
00000320: 5fc0 c4bd bbca dcbd 4e80 bcbd 0813 c0bd
00000330: 08ce bcbd a0fd 793d 6aef 50bd 6a14 803d
00000340: 72a7 1a3d efce 5f3d ddc4 973d bc80 85bd
00000350: e88b afbd ca2d a1bd de48 08bd 05b1 16bd
00000360: cc20 0cbc 42f8 1e3c 8187 a93d d4e8 e33c
00000370: 732b 8f3d 22da 203d ada9 8f3d 3748 cbbd
00000380: ba66 c6bd 0081 003c f709 7ebc 4cb0 623d
00000390: 05ba 093c 2956 163e 07a3 52bd 5a5d 103b
000003a0: 135a 99bd 923e babd e828 4cbd eb8d bdbd
000003b0: f90a d3bd 31e0 bdbd 8ea3 f9bc d698 853c
000003c0: a42a c6bd 32cd 93bd 60e6 70bb 9593 4cbd
000003d0: 42c5 abbc 24e3 dabd f9a3 12bd eab1 48bd
000003e0: 4b8f 573c 9c03 cbbb f0a5 45bd d3af 6a3d
000003f0: f35b e83b a5fa 9dbb 419c b7bd c9a9 933d

fc2.bias f4 [100]
0.061128896 -0.04187489 0.04333592 0.024101863 -0.026821986 -0.030834243 0.10184548 0.048060592
0.17008685 -0.016815023 -0.046467748 0.08130393 -0.020021612 -0.054537546 0.1551628 0.068419375
0.07836513 0.09400607 -0.007023683 0.16902423 0.04299553 -0.024318304 -0.09235185 0.13728471
-0.09582333 -0.102039844 -0.08755536 0.16776869 0.12327253 0.02907778 -0.072955675 -0.01014125
0.13709776 0.0018618935 0.037332598 -0.086807586 -0.031874277 0.09279306 0.026516942 -0.0786926
0.16464847 -0.061705217 -0.036128804 -0.018719539 -0.054203447 0.03430608 -0.009352152 0.056613375
0.039592955 0.0856999 0.051746376 -0.026449211 -0.017848298 0.03837175 -0.10240921 -0.00444422
0.058990676 0.13117078 0.04330431 0.11439046 0.06438875 -0.017283062 0.12493751 0.13189903
0.019875191 0.13412167 0.047799118 -0.016679324 -0.0031863714 -0.073238276 0.054655828 -0.05372962
-0.0039439 0.011426202 0.0100931 -0.067772955 -0.09685991 0.16685165 0.07236999 0.088305674
-0.0009457728 -0.0686121 -0.11045533 -0.0025106075 0.026475236 0.012034631 -0.016076911 -0.06545822
0.0022495978 -0.03306411 0.029045345 -0.001226208 -0.012345842 0.059956074 -0.079939455 0.07197389
-0.07241228 -0.0640796 0.048752367 -0.10125286
00000000: 4b62 7a3d 0185 2bbd 0181 313d 4571 c53c
00000010: c8b9 dbbc 1898 fcbc 5d94 d03d 2fdb 443d
00000020: 3f2b 2e3e a9bf 89bc f754 3ebd ad82 a63d
00000030: 5d04 a4bc c362 5fbd ffe2 1e3e 751f 8c3d
00000040: e67d a03d 4186 c03d ec26 e6bb b014 2d3e
00000050: 151c 303d 2e37 c7bc f722 bdbd 5d94 0c3e
00000060: 063f c4bd 44fa d0bd 3950 b3bd 8ecb 2b3e
00000070: 4f76 fc3d 8634 ee3c c969 95bd 7c27 26bc
00000080: 5b63 0c3e c70a f43a 11ea 183d 2dc8 b1bd
00000090: 9a8e 02bd 4a0a be3d 0f3a d93c 9629 a1bd
000000a0: 9c99 283e 9cbe 7cbd ccfb 13bd b859 99bc
000000b0: 6f04 5ebd 8884 0c3d c539 19bc 6de3 673d
000000c0: 392c 223d 6e83 af3d 02f4 533d 04ac d8bc
000000d0: 9836 92bc b22b 1d3d ebbb d1bd d2a0 91bb
000000e0: 35a0 713d a251 063e dc5f 313d 8c45 ea3d
000000f0: 40de 833d 3595 8dbc 3ddf ff3d 8a10 073e
00000100: 4cd1 a23c 3157 093e 02c9 433d 14a3 88bc
00000110: 71d2 50bb f3fd 95bd cade 5f3d 9713 5cbd
00000120: d53b 81bb f734 3b3c 885d 253c 8ccc 8abd
00000130: 7d5e c6bd 29db 2a3e b836 943d 9bd9 b43d
00000140: bded 77ba 8084 8cbd 6736 e2bd 0189 24bb
00000150: 98e2 d83c e72c 453c bab3 83bc f60e 86bd
00000160: fd6d 133b 3b6e 07bd 81f0 ed3c b7b8 a0ba
00000170: 3746 4abc 8094 753d 4cb7 a3bd 0c67 933d
00000180: e44c 94bd 2a3c 83bd 90b0 473d a95d cfbd

fc3.weight f4 [2, 100]
0.28668287 -0.020265665 -0.040264588 -0.16751792 -0.016488232 -0.4046334 0.32575652 0.33515558
0.23242684 0.0070252684 -0.043751307 -0.011442609 -0.27424553 0.06701424 0.24434093 -0.073495016
-0.50490636 0.36087885 0.24863435 0.24892212 -0.31168273 -0.067880884 0.07389419 0.81226426
-0.04217592 0.08426077 0.23461644 0.23969822 0.2957663 0.27443966 0.054915197 -0.52283984
0.84547323 0.07555855 -0.5502085 0.03801612 0.3632612 0.24511684 0.30315295 0.009908952
0.25402454 -0.15682895 0.01271365 -0.52029026 -0.051683053 0.2762274 0.1480957 0.2649236
-0.39214066 0.25519112 0.23979297 -0.067344315 -0.050134968 -0.031239294 -0.04448046 0.580644
-0.2701722 0.24348164 0.2961573 0.24199954 -0.008854721 -0.43287298 0.18844679 0.26761654
-0.4054831 0.21466649 -0.269848 -0.057851043 -0.031459108 0.0011514202 0.091734 -0.045423795
0.04538281 0.59505653 0.18450458 -0.50049 -0.08286288 0.26273954 -0.0051856088 -0.3741411
-0.08770594 0.054277334 -0.055721942 -0.08181678 -0.0494779 0.26297444 0.24826697 0.054610156
-0.18476631 0.17452452 -0.04594851 -0.040724363 0.06602404 -0.53886503 -0.0033093803 0.042918283
-0.050246723 -0.037213415 -0.032065056 0.046211813 -0.18437389 0.00064946467 -0.13359788 -0.21903561
0.06488872 0.11280879 -0.010539085 -0.18207687 0.16750629 0.06211782 0.04574741 0.06530115
0.0024153192 -0.0433187 0.029100055 0.075155035 -0.062798746 -0.04152615 0.08290555 0.11042426
0.31349105 -0.00065841543 -0.029562812 -0.092486724 0.08849655 0.09845693 -0.21764828 0.09839305
-0.017547332 0.20205191 -0.051851194 -0.38920006 -0.1193486 0.07163963 -0.44312853 0.032004967
-0.1071851 0.10273967 -0.01931115 -0.013270959 0.13687482 0.07923941 -0.02844727 -0.07142758
-0.08904944 0.20901349 0.16750124 0.14244129 0.20903021 0.164306 0.08359166 -0.08492095
0.006434396 0.064691514 0.02331613 -0.0974043 -0.1564604 0.103981234 0.028128408 0.11346748
-0.0028774366 -0.121134534 0.17057648 0.03261722 0.057437956 0.04429202 -0.16093971 0.041286416
0.07763352 0.041503526 0.02336391 0.040961273 -0.086364456 -0.0680469 0.076692685 0.014746544
0.028072126 0.029072577 -0.041276347 0.31852144 -0.010850539 -0.23568863 0.060402714 0.027472133
0.07656957 0.13984641 0.2521651 0.072452895 0.029303133 -0.11274203 0.07835002 0.044876892
0.07364888 -0.13226748 -0.06994957 0.019463813 -0.063485585 0.06161174 -0.01739072 0.038584087
00000000: 19c8 923e 2e04 a6bc 7bec 24bd d189 2bbe
00000010: 5412 87bc 1c2c cfbe 8fc9 a63e 8399 ab3e
00000020: 4d01 6e3e 3934 e63b 9234 33bd c879 3bbc
00000030: e969 8cbe c33e 893d 8234 7a3e 8e84 96bd
00000040: 8b41 01bf 1dc5 b83e 019a 7e3e 71e5 7e3e
00000050: e194 9fbe 2205 8bbd d655 973d 8df0 4f3f
00000060: a8c0 2cbd e990 ac3d 4b3f 703e 7373 753e
00000070: ae6e 973e 5b83 8c3e c2ee 603d d5d8 05bf
00000080: ef70 583f 71be 9a3d 77da 0cbf cbb6 1b3d
00000090: 5ffd b93e e9ff 7a3e dd36 9b3e 2859 223c
000000a0: 810f 823e c597 20be ea4c 503c be31 05bf
000000b0: 9cb1 53bd ae6d 8d3e 66a6 173e 11a4 873e
000000c0: a9c6 c8be 69a8 823e 4a8c 753e d1eb 89bd
000000d0: 535a 4dbd 8ce9 ffbc 2531 36bd 16a5 143f
000000e0: 0354 8abe 4053 793e eea1 973e bace 773e
000000f0: 6413 11bc 87a1 ddbe 32f8 403e 0905 893e
00000100: 7b9b cfbe 88d1 5b3e 8429 8abe 37f5 6cbd
00000110: 44db 00bd 40eb 963a 09df bb3d 4d0e 3abd
00000120: 53e3 393d a055 183f c5ee 3c3e 1d20 00bf
00000130: 03b4 a9bd cc85 863e 0aec a9bb 6c8f bfbe
00000140: 2c9f b3bd e951 5e3d b13c 64bd 8e8f a7bd
00000150: 57a9 4abd 96a4 863e b239 7e3e e6ae 5f3d
00000160: 6133 3dbe 8eb6 323e 8134 3cbd 97ce 26bd
00000170: 9d37 873d 0ff3 09bf 30e2 58bb 15cb 2f3d
00000180: 82cf 4dbd 186d 18bd a656 03bd 9948 3d3d
00000190: 82cc 3cbe d640 2a3a e2cd 08be df4a 60be
000001a0: 61e4 843d 4b08 e73d 20ac 2cbc 5c72 3abe
000001b0: c586 2b3e 416f 7e3d a361 3b3d 9cbc 853d
000001c0: 554a 1e3b f36e 31bd 3d63 ee3c e2ea 993d
000001d0: a19c 80bd 5317 2abd 63ca a93d 1d26 e23d
000001e0: e681 a03e 8399 2cba b62d f2bc ae69 bdbd
000001f0: ae3d b53d c9a3 c93d 31df 5ebe 4c82 c93d
00000200: 6cbf 8fbc b2e6 4e3e eb61 54bd 3b45 c7be
00000210: 0a6d f4bd ccb7 923d bee1 e2be a417 033d
00000220: dd83 dbbd 2d69 d23d 6b32 9ebc 706e 59bc
00000230: ea28 0c3e 4648 a23d 400a e9bc a048 92bd
00000240: 8e5f b6bd a207 563e 7285 2b3e 21dc 113e
00000250: 040c 563e d53f 283e 1b32 ab3d 09eb adbd
00000260: a0d7 d23b fc7c 843d 7801 bf3c e87b c7bd
00000270: 2837 20be 1df4 d43d 8c6d e63c a361 e83d
00000280: 6093 3cbb 6215 f8bd 9aab 2e3e a299 053d
00000290: 1044 6b3d 8d6b 353d 61cd 24be f21b 293d
000002a0: 53fe 9e3d 9aff 293d ac65 bf3c 02c7 273d
000002b0: d9df b0bd 2c5c 8bbd 0e11 9d3d 7d9b 713c
000002c0: 84f7 e53c 9d29 ee3c 6311 29bd 3e15 a33e
000002d0: 76c6 31bc 5c58 71be d668 773d 3d0d e13c
000002e0: 82d0 9c3d e633 0f3e c91b 813e 2f62 943d
000002f0: 200d f03c 4be5 e6bd fa75 a03d d5d0 373d
00000300: 39d5 963d 2071 07be b841 8fbd 9372 9f3c
00000310: bb04 82bd 985c 7c3d fc76 8ebc 590a 1e3d

fc3.bias f4 [2]
0.15761404 0.16599123
00000000: 9365 213e 9bf9 293e
