whittle_index_network.pth (torch, 45844 bytes, 5 tensors)

fc1.weight f4 [100, 5]
-0.3753661 0.041810215 0.0853799 -0.32943177 -0.44332838 -0.28177303 0.103554726 0.16814679
-0.018280804 -0.10504919 0.38839138 0.40131044 -0.28279683 0.045817852 0.17819881 -0.25441867
0.005087614 0.09515315 0.13102257 0.07453674 -0.07731256 -0.39301026 -0.17310342 -0.13578063
-0.33297825 0.26186496 0.31398028 0.21672577 0.12675482 -0.0062075853 0.3122924 0.17713434
0.38724118 -0.166177 -0.4244267 -0.16730359 -0.41391534 0.22739077 0.08397794 -0.1820527
0.2837327 0.046607018 -0.37254527 -0.19439912 -0.22893699 -0.2775392 0.4362651 -0.20633349
0.19408166 -0.0799925 0.11643249 0.14448708 0.22015339 -0.23433973 0.01449585 0.25391877
-0.43848848 -0.19423869 -0.2739223 0.0613572 -0.25961277 0.16710162 -0.2682923 0.39811015
0.20358056 -0.15495637 -0.18037066 -0.27899665 -0.37044364 0.31882697 0.312069 0.4457506
0.37763584 -0.36829406 0.41660804 -0.24515961 0.41527337 0.31849158 0.337739 -0.055563927
0.38509792 -0.3479935 0.31430185 -0.42179212 0.0062285364 -0.34936926 -0.34674236 0.30576026
-0.2910744 -0.008798569 -0.269589 0.2446351 0.3563872 -0.0023815036 0.333426 -0.18184951
-0.16261992 0.4197244 0.18592596 -0.4211947 -0.18415153 -0.22205296 -0.07832381 0.21273983
0.36564177 -0.31460997 -0.2681042 -0.26527205 0.208139 -0.06921601 0.08788973 0.28522724
0.3281299 -0.2717458 0.04347205 -0.25140822 0.14988846 -0.43419948 0.42159784 0.18914384
-0.13843551 -0.22139712 0.04997495 -0.094640285 0.15950751 0.048398614 0.3485095 0.40251082
0.01918748 0.29542416 0.1428206 -0.105014175 0.43671304 0.39508897 0.33676815 -0.2611783
-0.3070187 -0.41628638 -0.042230487 0.10802603 -0.40964216 -0.03126818 0.34693623 -0.18522805
0.26674914 -0.008450955 -0.4398024 -0.0078986585 -0.3042973 -0.16390559 0.24853456 -0.18323418
0.28818494 -0.10255599 -0.29955596 0.42762822 0.18963319 0.38840574 -0.08505297 0.32359612
-0.23150523 0.09564972 0.4123026 -0.27709907 -0.3944888 -0.20412019 0.43325144 -0.350348
0.04774496 -0.025636256 -0.15016353 -0.20160583 -0.03529954 -0.07443577 0.016877353 -0.23810612
0.2513141 0.32957906 -0.4131466 0.11305493 -0.40304226 -0.21095778 0.25486076 -0.19804011
0.031033933 -0.37747085 0.34185582 -0.09885055 -0.15073195 -0.3129363 0.33886284 0.29654968
-0.42896292 -0.34068397 -0.40805417 0.30613512 0.3012504 -0.21006027 0.3859282 0.29648018
0.15915579 -0.277285 0.12622684 0.100901484 -0.3170546 -0.2881788 0.4340763 -0.12782648
0.303302 -0.3606637 -0.15047166 -0.10893357 -0.23794895 -0.2761551 -0.44227073 0.08201283
0.21102005 -0.12998754 0.26953375 0.030145168 0.34915203 0.2927568 -0.08256358 0.23405421
0.1314373 0.30246425 0.39116436 0.42655838 0.09555435 0.022924542 0.37382078 -0.42059666
0.42933154 -0.4211311 0.16960394 -0.29562575 -0.033183485 0.023607135 -0.19394505 0.06566554
-0.3465901 -0.055057436 0.22578079 0.20546407 -0.012683451 0.065674305 -0.061545372 0.06633127
0.15408808 -0.06290296 -0.04738772 -0.38891572 0.23845989 0.3527428 0.17952603 0.27656823
00000000: fc2f c0be 3041 2b3d a8db ae3d 48ab a8be
00000010: f0fb e2be 8e44 90be 8014 d43d ac2e 2c3e
00000020: a0c1 95bc 0824 d7bd 3cdb c63e 9078 cd3e
00000030: bfca 90be 80ab 3b3d c079 363e 2a43 82be
00000040: 00b6 a63b a8df c23d c82a 063e b8a6 983d
00000050: 0c56 9ebd a438 c9be 0642 31be 140a 0bbe
00000060: 207c aabe 2a13 863e 06c2 a03e 5ced 5d3e
00000070: 04cc 013e 0069 cbbb cae4 9f3e b462 353e
00000080: 7a44 c63e 4e2a 2abe 754e d9be a251 2bbe
00000090: b6ec d3be 20d9 683e a0fc ab3d 066c 3abe
000000a0: 6a45 913e 00e7 3e3d 41be bebe 9010 47be
000000b0: 756e 6abe 9e19 8ebe 245e df3e 1649 53be
000000c0: 58bd 463e 1cd3 a3bd 2874 ee3d 6cf4 133e
000000d0: e46f 613e c1f6 6fbe 0080 6d3c a401 823e
000000e0: 9081 e0be 82e6 46be 8b3f 8cbe b051 7b3d
000000f0: f7eb 84be b01c 2b3e 9c5d 89be 18d5 cb3e
00000100: 6c77 503e e2ac 1ebe 16b3 38be a6d8 8ebe
00000110: caaa bdbe 4a3d a33e 82c7 9f3e 6c39 e43e
00000120: 7c59 c13e 0a91 bcbe a64d d53e 1f0b 7bbe
00000130: b69e d43e 5411 a33e 20ec ac3e 0097 63bd
00000140: 8e2b c53e 342c b2be 2cec a03e 23f5 d7be
00000150: c018 cc3b 87e0 b2be 3788 b1be 9c8c 9c3e
00000160: b407 95be e027 10bc 9207 8abe a081 7a3e
00000170: 6278 b63e 0013 1cbb d0b6 aa3e c236 3abe
00000180: d685 26be 1ee6 d63e 6063 3e3e d5a6 d7be
00000190: 3892 3cbe da61 63be 3c68 a0bd 78d8 593e
000001a0: 6635 bb3e 8f14 a1be f444 89be bdd1 87be
000001b0: 6422 553e 20c1 8dbd 88ff b33d 4e09 923e
000001c0: a400 a83e 4422 8bbe c00f 323d 94b8 80be
000001d0: 5c7c 193e 654f debe acdb d73e ecae 413e
000001e0: 0ac2 0dbe edb5 62be 88b2 4c3d c4d2 c1bd
000001f0: f055 233e a03d 463d d66f b23e e615 ce3e
00000200: 102f 9d3c d641 973e 903f 123e ac11 d7bd
00000210: da98 df3e 1a49 ca3e e06c ac3e 2ab9 85be
00000220: 8e31 9dbe 7d23 d5be e0f9 2cbd c03c dd3d
00000230: 9ebc d1be 1013 00bd a0a1 b13e 6cac 3dbe
00000240: 5893 883e e075 0abc c82d e1be 6069 01bc
00000250: dbcc 9bbe ded6 27be d87f 7e3e bea1 3bbe
00000260: fa8c 933e e008 d2bd 665f 99be 16f2 da3e
00000270: 342f 423e 1edd c63e 4030 aebd 64ae a53e
00000280: b50f 6dbe 00e4 c33d 5419 d33e eedf 8dbe
00000290: 70fa c9be e204 51be 22d3 dd3e d060 b3be
000002a0: 3890 433d 2003 d2bc 78c4 19be c271 4ebe
000002b0: 4096 10bd c871 98bd 6042 8a3c 17d2 73be
000002c0: 3eac 803e 96be a83e f387 d3be 5889 e73d
000002d0: 8e5b cebe 5105 58be 1c7d 823e 07cb 4abe
000002e0: e03a fe3c dc43 c1be ba07 af3e 2872 cabd
000002f0: 7a59 1abe 3039 a0be 6e7f ad3e 5cd5 973e
00000300: 07a1 dbbe 216e aebe 7aec d0be bebd 9c3e
00000310: 7e3d 9a3e 0a1a 57be 6298 c53e 40cc 973e
00000320: bcf9 223e 4df8 8dbe 9c41 013e 70a5 ce3d
00000330: fb54 a2be 2c8c 93be 403f de3e f2e4 02be
00000340: 664a 9b3e eaa8 b8be 3e15 1abe 9018 dfbd
00000350: e4a8 73be 3464 8dbe 4f71 e2be 58f6 a73d
00000360: a415 583e 741b 05be 5400 8a3e 00f3 f63c
00000370: 0ec4 b23e 38e4 953e 1817 a9bd e8ab 6f3e
00000380: 8097 063e 98dc 9a3e b246 c83e dc65 da3e
00000390: 00b2 c33d 40cc bb3c 7065 bf3e 7258 d7be
000003a0: 58d1 db3e 7f9e d7be a8ac 2d3e 425c 97be
000003b0: 68eb 07bd c063 c13c 8899 46be a87b 863d
000003c0: 4274 b1be e883 61bd 1433 673e 2c65 523e
000003d0: 40ce 4fbc 4080 863d 0017 7cbd b0d8 873d
000003e0: 44c9 1d3e 44d3 80bd a019 42bd f61f c7be
000003f0: d42e 743e b49a b43e acd5 373e 5a9a 8d3e

fc1.bias f4 [100]
-0.22232075 0.31535226 -0.02429691 0.3721159 -0.33372703 0.11138922 -0.0213086 -0.13039804
-0.22750784 -0.24423827 0.23337889 0.25983292 -0.24049887 0.08424306 -0.18992805 0.2934587
-0.014143348 -0.07519281 0.26632243 -0.30241907 0.41869378 -0.062085986 0.033962786 -0.39209232
-0.023709565 -0.28896433 -0.22351445 0.278439 -0.25427192 0.3111452 0.2002719 0.14691168
-0.33888203 0.4335292 -0.22472629 -0.21156788 -0.02687043 0.16132003 0.2320888 0.37782073
-0.3904675 0.27196681 0.3258838 -0.4429658 -0.2435159 0.052034706 0.07027739 -0.29892632
0.124854684 0.16684794 0.027917475 -0.25457132 0.07779658 -0.15886426 -0.116747916 -0.059754282
0.17455584 -0.4355899 -0.2090274 0.40545368 0.26272947 -0.26427922 0.022729367 0.38168257
0.21444368 0.18070495 -0.44469082 -0.16904232 -0.4375699 -0.43799835 -0.18406111 0.18621063
-0.21566975 -0.3032331 0.14009738 0.16320837 -0.052844107 -0.30027017 0.3439619 -0.33124995
-0.26681596 -0.0732795 0.08596814 0.012134999 0.26308358 0.28745037 0.34710538 0.08172375
-0.035250604 0.350106 0.2554583 0.403086 0.27940863 0.23499465 0.30195767 0.29474157
0.06013322 0.096855104 0.30800903 0.052880228
00000000: 0da8 63be da75 a13e 500a c7bc fa85 be3e
00000010: 45de aabe 0820 e43d 608f aebc 1087 05be
00000020: d1f7 68be 9919 7abe e0fa 6e3e d208 853e
00000030: 5645 76be a087 ac3d 807c 42be 3840 963e
00000040: 80b9 67bc b0fe 99bd 6a5b 883e acd6 9abe
00000050: 085f d63e e04d 7ebd 901c 0b3d 53c0 c8be
00000060: 903a c2bc 22f3 93be f9e0 64be 8e8f 8e3e
00000070: ee2f 82be 6c4e 9f3e 1414 4d3e 0470 163e
00000080: f281 adbe 8af7 dd3e a61e 66be 40a5 58be
00000090: 601f dcbc 1431 253e b0a8 6d3e b871 c13e
000000a0: 5beb c7be 3c3f 8b3e 3eda a63e 6acc e2be
000000b0: 3b5c 79be 5822 553d 98ed 8f3d df0c 99be
000000c0: d0b3 ff3d 30da 2a3e 30b3 e43c 2c57 82be
000000d0: d053 9f3d 50ad 22be 8819 efbd e8c0 74bd
000000e0: c4be 323e a405 dfbe 470b 56be a097 cf3e
000000f0: 7a84 863e 9b4f 87be f032 ba3c e66b c33e
00000100: 2097 5b3e b80a 393e 84ae e3be 6e19 2dbe
00000110: 2909 e0be 5241 e0be 847a 3cbe 00ae 3e3e
00000120: 88d8 5cbe 5e41 9bbe b075 0f3e 1820 273e
00000130: 1073 58bd 03bd 99be c61b b03e 9899 a9be
00000140: 1a9c 88be 9013 96bd 1010 b03d e0d1 463c
00000150: e4b2 863e b22c 933e ccb7 b13e c85e a73d
00000160: f062 10bd 1841 b33e 6ecb 823e 4a61 ce3e
00000170: a60e 8f3e 70a2 703e 329a 9a3e 5ee8 963e
00000180: 404e 763d f85b c63d 5cb3 9d3e f098 583d

fc2.weight f4 [100, 100]
-0.08570001 0.08668738 -0.008722946 0.095322765 0.033735402 -0.047072913 0.00033535063 -0.06987989
-0.04461768 0.031514265 -0.022621013 -0.057688273 -0.095287435 0.009886935 0.048827626 0.0071301907
-0.033589445 -0.01647675 -0.07830711 0.03956733 0.030797355 0.017406777 0.027375884 -0.02749157
-0.0057190806 0.0015105978 0.042557202 0.07956577 0.015952013 -0.0645628 0.035770454 0.08218748
-0.09232078 -0.027743973 0.06211794 -0.017799541 0.057881616 0.07521633 -0.024121001 -0.065806225
-8.925796e-06 -0.084908046 0.02058728 -0.024524212 -0.05376376 -0.06906953 0.07438841 -0.03985945
-0.04852462 -0.030289292 -0.055143487 0.092513196 0.015856847 0.094166525 -0.06710881 -0.008927748
0.043470927 -0.023658797 0.049900107 -0.0075084344 -0.07054242 -0.097361565 -0.04071789 -0.050255146
0.06421942 -0.035006024 0.04923377 -0.064269304 0.09755198 -0.06067015 0.097074695 0.041695096
-0.095472194 0.030348308 0.0097794905 0.006641805 -0.09642299 -0.016825713 -0.070552565 -0.06422387
-0.060967803 -0.06412457 -0.012591101 0.020560957 -0.063312665 0.065534376 -0.065384746 0.04671248
-0.030051254 0.0059644133 0.044227667 -0.07749824 -0.063841105 -0.063188955 0.044209518 -0.0021658763
-0.064559326 -0.013172947 0.016336821 -0.05824944 0.054699488 0.060057558 0.09742213 0.07863719
-0.08354422 0.09299473 0.09465683 -0.07721595 0.043398924 -0.035514787 -0.081610724 0.05888837
0.08177189 -0.08721342 -0.030029476 -0.019591793 -0.09713687 -0.027966455 0.008212224 0.020018026
-0.08941772 -0.0746433 0.03502796 0.037201412 -0.06694573 -0.06252204 -0.02359195 0.060262807
0.072459765 -0.0025563985 0.09241871 0.07036675 0.08402652 -0.0143466145 -0.089014366 -0.09128051
0.00188981 -0.053565945 0.07244956 0.03807319 -0.0746908 0.098894306 -0.08737788 0.036770113
0.09529822 -0.04097576 0.015071169 -0.070835926 -0.01090318 -0.05553743 -0.0379243 0.027163513
0.023396328 0.06325353 -0.03247048 -0.05257448 0.03029003 -0.047708668 0.030149825 0.09291781
-0.06472306 0.071794085 -0.08634827 0.062993206 0.07149329 -0.007057011 0.025798209 -0.015763141
0.007678911 0.04772041 0.09335066 -0.02499409 -0.083121516 -0.09473773 -0.048524894 0.0833633
0.076025166 0.071336664 -0.081096254 0.08484457 0.0979163 0.023909435 -0.01641766 0.08178306
-0.09018654 0.0024472699 -0.09778359 0.036993004 0.046214543 -0.092421606 0.04893183 -0.08107903
-0.03218423 0.009588502 -0.06309098 -0.08903857 -0.058003496 -0.08224664 0.09129586 0.010560416
0.079941906 0.09538967 -0.0075112805 0.013341442 -0.095008455 -0.0713166 0.09565855 0.086360805
0.030613698 -0.021631956 -0.011830531 0.04317475 0.014554381 0.07241566 -0.056255545 -0.036854133
-0.09588557 0.035652407 0.046776213 -0.08755707 -0.05556766 0.09424812 -0.008809373 0.044477366
-0.04800546 0.0067093372 0.05495306 0.03997592 0.06658297 0.062509544 0.09377637 0.029067643
0.07392486 0.04476694 -0.048731375 0.0016358346 -0.09067949 0.050682284 -0.0792951 -0.058761157
-0.053207673 -0.04736662 -0.07087152 -0.0444518 -0.089245796 0.005946815 -0.05424222 0.013970099
-0.032823645 -0.06983666 -0.04575796 0.07344807 -0.054324508 -0.028183445 -0.08894264 -0.0048552975
00000000: 7d83 afbd 2789 b13d b0ea 0ebc 9538 c33d
00000010: 222e 0a3d 87cf 40bd 00d2 af39 301d 8fbd
00000020: 07c1 36bd 1a15 013d b44f b9bc 8a4a 6cbd
00000030: 0f26 c3bd d0fc 213c 7aff 473d 60a4 e93b
00000040: 1695 09bd 40fa 86bc 7a5f a0bd 5a11 223d
00000050: bc4a fc3c a898 8e3c 6443 e03c 0036 e1bc
00000060: 2067 bbbb 40ff c53a 7650 2e3d 61f3 a23d
00000070: ccad 823c 8039 84bd 0a84 123d e951 a83d
00000080: ad12 bdbd 5447 e3bc 626f 7e3d 58d0 91bc
00000090: 4615 6d3d 050b 9a3d 6899 c5bc 6ac5 86bd
000000a0: 00c0 15b7 45e4 adbd a8a6 a83c 00e7 c8bc
000000b0: 6337 5cbd 5374 8dbd f358 983d aa43 23bd
000000c0: c0c1 46bd 4021 f8bc 23de 61bd 8f77 bd3d
000000d0: 38e6 813c 61da c03d 5870 89bd b045 12bc
000000e0: 920e 323d 18d0 c1bc 0e64 4c3d 5009 f6bb
000000f0: 8b78 90bd 8065 c7bd cdc7 26bd 57d8 4dbd
00000100: 7985 833d 7a62 0fbd 5aa9 493d a09f 83bd
00000110: 55c9 c73d 4381 78bd 19cf c63d 7ac8 2a3d
00000120: ed86 c3bd 049d f83c 283a 203c 80a3 d93b
00000130: 6b79 c5bd 14d6 89bc dd7d 90bd ce87 83bd
00000140: 60b9 79bd be53 83bd e84a 4ebc 746f a83c
00000150: 12aa 81bd e336 863d 70e8 85bd 9655 3f3d
00000160: 0c2e f6bc 2071 c33b 1228 353d 66b7 9ebd
00000170: 20bf 82bd 3669 81bd 0a15 353d 60f1 0dbb
00000180: ae37 84bd 58d3 57bc ccd4 853c f796 6ebd
00000190: 920c 603d eafe 753d 4185 c73d 890c a13d
000001a0: 3b19 abbd 0574 be3d 71db c13d 6523 9ebd
000001b0: 12c3 313d f477 11bd 8623 a7bd ee34 713d
000001c0: 0578 a73d f39c b2bd 6000 f6bc f87e a0bc
000001d0: b2ef c6bd e819 e5bc 908c 063c d8fc a33c
000001e0: a320 b7bd 96de 98bd 7a79 0f3d 8260 183d
000001f0: d81a 89bd 8e0b 80bd e843 c1bc 22d6 763d
00000200: c965 943d 4089 27bb 0546 bd3d 711c 903d
00000210: 1916 ac3d 100e 6bbc 2a4d b6bd 47f1 babd
00000220: 80b3 f73a f767 5bbd 6f60 943d a2f2 1b3d
00000230: 7df7 98bd 1989 ca3d 2df3 b2bd 429c 163d
00000240: b72b c33d 33d6 27bd 10ed 763c 6d12 91bd
00000250: 40a3 32bc 377b 63bd 8356 1bbd 0486 de3c
00000260: a8a9 bf3c 118b 813d c4ff 04bd 5758 57bd
00000270: cc22 f83c 2a6a 43bd c4fc f63c b14b be3d
00000280: 868d 84bd c708 933d 5dd7 b0bd 9502 813d
00000290: 136b 923d 803e e7bb c456 d33c b421 81bc
000002a0: 609f fb3b 7a76 433d a12e bf3d 68c0 ccbc
000002b0: 9d3b aabd db05 c2bd 0ac2 46bd 61ba aa3d
000002c0: 15b3 9b3d f518 923d cb15 a6bd fdc2 ad3d
000002d0: 5788 c83d b8dd c33c 547e 86bc e17d a73d
000002e0: b8b3 b8bd 6062 203b c342 c8bd fa85 173d
000002f0: 764b 3d3d 8a47 bdbd be6c 483d c30c a6bd
00000300: 9cd3 03bd 1819 1d3c d835 81bd db59 b6bd
00000310: 1395 6dbd ed70 a8bd 53f9 ba3d 9805 2d3c
00000320: 95b8 a33d a95b c33d 3021 f6bb 1096 5a3c
00000330: cb93 c2bd 700e 92bd a1e8 c33d efdd b03d
00000340: 94c9 fa3c 8035 b1bc d8d4 41bc 02d8 303d
00000350: 8075 6e3c a94e 943d 376c 66bd 5cf4 16bd
00000360: a75f c4bd 4208 123d 6a98 3f3d 1f51 b3bd
00000370: ea9a 63bd 2905 c13d 3055 10bc e62d 363d
00000380: 60a1 44bd 00da db3b 7616 613d cabd 233d
00000390: a75c 883d 0105 803d d30d c03d 441f ee3c
000003a0: eb65 973d 8a5d 373d 8d9a 47bd 8069 d63a
000003b0: 2bb6 b9bd 3a98 4f3d 7865 a2bd 8aaf 70bd
000003c0: 4af0 59bd 8003 42bd 1625 91bd 1713 36bd
000003d0: 80c6 b6bd 80dd c23b 172d 5ebd d8e2 643c
000003e0: 1672 06bd 8606 8fbd b36c 3bbd f16b 963d
000003f0: 6083 5ebd f8e0 e6bc 8f27 b6bd 3019 9fbb

fc2.bias f4 [100]
-0.024446867 0.026861735 0.09666487 -0.09186991 -0.0066410154 -0.008215204 -0.073115826 -0.024821997
-0.09195792 -0.01718279 -0.054193974 -0.09320357 0.021886751 -0.07857706 0.005350493 0.08039392
0.06691808 -0.08232721 0.002908431 0.07381346 -0.06249986 0.071386345 -0.07487448 0.08415114
0.0771103 -0.029136434 -0.00058174133 -0.041998733 0.08624972 -0.0012504607 -0.072752714 -0.07760234
0.0140433535 0.0649891 -0.060191702 -0.063382074 0.07394654 -0.016201615 -0.021880329 -0.056884944
-0.09511223 0.006667733 -0.015326723 0.051277585 -0.07451539 -0.08969885 -0.07411114 0.02166237
-0.021011904 -0.017967463 0.09052811 0.07382692 0.09744599 0.030582912 0.08361078 0.022891663
0.053335972 -0.08447021 -0.065475404 -0.094629325 0.0948881 -0.0466807 -0.09073967 0.02264665
0.039647005 -0.08122043 0.019744217 -0.032483064 -0.089419976 0.057551645 -0.08657878 -0.03485588
-0.042397834 0.052538104 0.0035913587 -0.07698232 -0.016904056 -0.022659384 -0.002153352 -0.06424928
-0.09018779 -0.06316772 -0.058673896 0.098681875 0.0047943965 -0.06368989 0.048166014 -0.028988086
-0.07474832 -0.060875285 0.0051904544 -0.08720274 -0.05415014 -0.08135847 -0.074014984 -0.041658726
0.020838164 0.012843981 0.03376267 0.057876684
00000000: cc44 c8bc 240d dc3c 3bf8 c53d 4b26 bcbd
00000010: e09c d9bb 1099 06bc c0bd 95bd 8057 cbbc
00000020: 6f54 bcbd ecc2 8cbc 80fa 5dbd 83e1 bebd
00000030: d84b b33c 02ed a0bd 3053 af3b 91a5 a43d
00000040: 590c 893d 2b9b a8bd 609b 3e3b 832b 973d
00000050: daff 7fbd 0133 923d cb57 99bd 6f57 ac3d
00000060: 01ec 9d3d 88af eebc 0080 18ba dd06 2cbd
00000070: b1a3 b03d 80e6 a3ba 60ff 94bd faed 9ebd
00000080: 1816 663c 0119 853d 938b 76bd 76ce 81bd
00000090: 4971 973d 40b9 84bc 603e b3bc 3000 69bd
000000a0: 33ca c2bd 007d da3b f01c 7bbc 7208 523d
000000b0: 869b 98bd 08b4 b7bd 95c7 97bd 4875 b13c
000000c0: 2821 acbc 8030 93bc cd66 b93d 9132 973d
000000d0: c391 c73d 0489 fa3c 213c ab3d 4c87 bb3c
000000e0: d276 5a3d b8fe acbd f817 86bd 05cd c1bd
000000f0: b154 c23d 4334 3fbd b8d5 b9bd 7885 b93c
00000100: e664 223d e656 a6bd a0be a13c f60c 05bd
00000110: d221 b7bd 46bb 6b3d 3750 b1bd 0ac5 0ebd
00000120: 5aa9 2dbd 3232 573d 005d 6b3b e8a8 9dbd
00000130: 607a 8abc 2ca0 b9bc 401f 0dbb 2095 83bd
00000140: 60b4 b8bd 145e 81bd 0a54 70bd b919 ca3d
00000150: 501a 9d3b d86f 82bd ba49 453d 6c78 edbc
00000160: a615 99bd 5d58 79bd b014 aa3b 5a97 b2bd
00000170: 8acc 5dbd 459f a6bd 2b95 97bd 57a2 2abd
00000180: ccb4 aa3c 906f 523c ba4a 0a3d 1a10 6d3d

fc3.weight f4 [1, 100]
0.05288454 0.024301551 0.015497051 -0.08682853 -0.06266618 0.019848004 -0.07114689 0.0152840465
-0.061029244 0.081394516 0.023075387 0.030892916 -0.056781556 -0.06696938 -0.032346487 -0.06905514
0.04329563 -0.007556118 0.048558183 -0.015857734 -0.087618254 0.08607016 -0.07807974 0.0031291693
0.043164648 -0.08977059 0.052244656 0.09221252 -0.080081716 -0.06398873 -0.08886721 -0.049484815
-0.03180089 -0.089671806 -0.049460735 -0.06891893 0.026664503 -0.0051314235 -0.012585402 -0.034035824
0.07533515 -0.019994058 0.01655861 0.052814074 0.05349485 -0.01689969 0.06870737 -0.03665608
-0.07592169 0.06659461 -0.0018227696 0.070022725 -0.050185658 -0.012658514 -0.080100514 0.057205565
-0.0801052 -0.017825231 -0.075525686 0.06244702 0.096995406 0.036350034 0.022963539 0.009034313
0.0013414249 -0.09266245 0.0062342733 -0.078104615 -0.076985225 0.08924622 0.025839977 -0.0033970028
0.008929849 0.012140237 0.07123587 0.068649895 -0.05184648 -0.055049278 0.07939813 -0.008089162
0.027062364 -0.022050023 0.07619657 0.022850536 0.008201323 0.038608544 0.0936644 0.07172141
0.07962064 0.040684305 0.03753566 -0.020484723 0.004423499 0.061676122 0.072560824 0.097808145
0.088975005 -0.042941462 -0.02591525 0.05823303
00000000: 769d 583d 0c14 c73c 58e7 7d3c 28d3 b1bd
00000010: 2057 80bd 4898 a23c 76b5 91bd f069 7a3c
00000020: cdf9 79bd 2bb2 a63d 9808 bd3c 2413 fd3c
00000030: c793 68bd 3e27 89bd c07d 04bd c86c 8dbd
00000040: c256 313d 5099 f7bb f2e4 463d 14e8 81bc
00000050: 3371 b3bd 8d45 b03d 45e8 9fbd c012 4d3b
00000060: 6acd 303d a5d9 b7bd 7efe 553d ebd9 bc3d
00000070: e201 a4bd 860c 83bd 0300 b6bd 97b0 4abd
00000080: a641 02bd daa5 b7bd 5797 4abd 5e25 8dbd
00000090: 846f da3c 8025 a8bb 0033 4ebc 2669 0bbd
000000a0: 5149 9a3d 94ca a3bc eca5 873c 9253 583d
000000b0: 6a1d 5b3d 3871 8abc 73b6 8c3d b024 16bd
000000c0: d57c 9bbd c162 883d 00ea eeba 1368 8f3d
000000d0: 7a8f 4dbd a865 4fbc bd0b a4bd 6250 6a3d
000000e0: 320e a4bd 3806 92bc 36ad 9abd 72c8 7f3d
000000f0: 87a5 c63d c6e3 143d 081e bc3c a804 143c
00000100: c0d2 af3a d0c5 bdbd e048 cc3b 50f5 9fbd
00000110: 6eaa 9dbd b9c6 b63d 5cae d33c 40a0 5ebb
00000120: 804e 123c d8e7 463c 1de4 913d 5198 8c3d
00000130: fa5c 54bd 5a7b 61bd 7d9b a23d 6888 04bc
00000140: e4b1 dd3c 40a2 b4bc f30c 9c3d 0c31 bb3c
00000150: d85e 063c fe23 1e3d 1fd3 bf3d ade2 923d
00000160: 2510 a33d 96a4 263d febe 193d 94cf a7bc
00000170: 00f3 903b 1aa0 7c3d c59a 943d a34f c83d
00000180: 8738 b63d 63e3 2fbd 384c d4bc c285 6e3d
