wi_output/qnetwork_local.pth (torch, 46542 bytes, 6 tensors)

fc1.weight f4 [100, 6]
00000000: 96a2 08be 4324 043f 3f73 0f40 8044 2e3c
00000010: ba8a abbe 2a2d c53b db3e 213f 3232 533e
00000020: 98c3 a8be 801a 693b c01f 013e 8fc9 f93d
00000030: f552 833f 02f0 9d3e dd4f 5dbf 6011 6dbe
00000040: 7e8d b73e 07a8 933e 9b64 61bf 9a04 b4be
00000050: 76ff 9fbf 9419 a43e 4658 abbe 8542 e83e
00000060: 2433 61be ec37 c7be a2e9 3040 78e6 cbbd
00000070: d85f c53e 27a5 743b 305f d9bf a32a abbe
00000080: e7bf 7fbf 860d d0be 28e3 9e3e 1b1e 473d
00000090: b10f 8e3d 394f 4fbd 8b67 743f 486e e63d
000000a0: d2b6 c3be 1403 5fbe 648f 8dbf fca4 84bf
000000b0: c822 443f e21b b63e 1642 babe 2e4c 19be
000000c0: 2b84 803f fcf3 0b3e 3d22 7dbf 006e f13d
000000d0: 8022 003d b649 b23e 0a52 7cbf 2aed 56bf
000000e0: 1720 86bf 4efb ca3e 3080 01be 6b05 ea3e
000000f0: 8169 dbbe 1172 823d 3438 5cc0 3660 9ebe
00000100: 60d0 07bd 2053 713d c1d4 853f ce0b ca3e
00000110: 8d15 833f 93af 4cbe 78aa a73e cc90 893e
00000120: acf6 3e3f 830a 59bd 10fc 0640 fc57 183e
00000130: 0069 8e3a 7aa7 1d3e bc23 cdbe 0406 973e
00000140: 84d4 993d 041b 9f3e 000c a0bd c870 c93c
00000150: deb0 37bf ec3b 803e 518a 123f 308c 7b3e
00000160: c471 763e 5e81 093e 5593 a83e f71c d53e
00000170: 0ad2 ea3f 58a3 e0bd 58c8 773e eaed 8dbd
00000180: 37fa fbbe f702 aebf 2429 02bf 764f c73e
00000190: d007 6abd 67b9 39be c0c3 0bbd 74a1 aebd
000001a0: ccb6 c1bd 783b 2bbe a013 583c 8a4d 9ebe
000001b0: 6d03 1fc0 a7cc d93e 98fe a83e f384 71be
000001c0: 065f a5be 6804 853d 10dd 6bbf b6a5 a1bf
000001d0: 0a04 37be 8067 fa3d a08a ebbd f292 3b3e
000001e0: 7df6 7dbf 30a0 8abf e713 c93c 6c62 883e
000001f0: f5e6 91be 4878 80bd 65ea 09bf 3705 503d
00000200: 0fcf 4cc0 381a 62bd 1c4b ad3e 79b8 1d3d
00000210: b38d 763f 914b 1e3f beaa 843f 38f9 c03d
00000220: 985a 83be 402d c8be 5844 333f 420c 94bd
00000230: b4ea 553f 482c 7e3e 0005 3d3b 5457 733e
00000240: 4856 8c3f 90bb ac3e 08d5 763f b0a1 823e
00000250: c371 5abe 84a2 2b3e 377a 493f 49c4 e0be
00000260: 6f16 c4bf 096e 44be 1428 bbbd 1c33 c33e
00000270: 57a7 2bbd c40c 0f3e dbeb 90bf 9899 5c3d
00000280: e848 aabe 62b7 513e a10d 2c3f e170 033c
00000290: 6621 f23f a0b1 00bc 2016 483c 3f88 713e
000002a0: dd67 9dbe 7007 743d aa44 b43d 403f cabb
000002b0: 909c 69be 8355 3e3c 5a7d 4c3f 7abe 89be
000002c0: e3ba 26bf 2e27 12be cc79 c83e 06ab b4bc
000002d0: 7805 82be 0ad9 333e b67c e4be 3a0e 16be
000002e0: 90ad 4abd 192e d53d 6796 afbe 2a3e 6abe
000002f0: 7c78 2a40 80f9 e23c 575a 2dbe a78d 773d
00000300: 74b3 9e3f f219 a03d a99b 3fbf 34bb c33e
00000310: dc51 993d 1015 073f ca99 bb3f cad3 943e
00000320: 042a 6cbf b41b ad3e e0a9 633c fc51 803b
00000330: 3514 8b3f 58dc 153f 24c1 66bf 05af c3be
00000340: 846f 043e c117 963e 7384 ee3e ba16 5bbf
00000350: 4f71 debf 0c72 19be 4009 6f3e cdc0 af3e
00000360: 4de3 4b3f e7b9 083f 436d 34be afe3 b6be
00000370: bc6b 283e a670 da3b 17e9 2ebe 6610 4ebc
00000380: 65d4 3b40 d0b5 d63d c041 d0bc 545e b73d
00000390: e76d 683f c8db 003d 9ab4 c43f 984a 83bd
000003a0: 0075 cc3e 3a92 af3e 7260 543f 8874 943e
000003b0: c50e ff3f 0429 a2bd c895 043e 0fb2 413d
000003c0: 5f7f 423f 4f2e b03e 7099 e83f 1d56 53be
000003d0: 5881 7b3e 50ce 763e 11f9 8c3f 3b3b 4fbe
000003e0: cb76 2ec0 a6eb b0be d4b1 273e c93c 063d
000003f0: 207f da3e 093d cdbd b1dd 0140 00bc c53a
-0.13343272 0.5161783 2.241409 0.010636449 -0.33504277 0.006017347 0.62986535 0.20624617
-0.32961726 0.0035568774 0.12609768 0.121966474 1.0259691 0.30847174 -0.86449987 -0.2315116
0.35850137 0.28839132 -0.88044137 -0.3515976 -1.2499835 0.32050765 -0.33465785 0.4536325
-0.21992165 -0.38909853 2.7642598 -0.09956068 0.38549685 0.0037329884 -1.6982174 -0.33430967
-0.99902195 -0.40635318 0.3103268 0.048612695 0.06936587 -0.050612662 0.95470494 0.11251503
-0.38225418 -0.21778518 -1.1059384 -1.0362849 0.7661557 0.35568148 -0.36378545 -0.14970466
1.0040334 0.13667291 -0.9888037 0.11788559 0.0312829 0.34821862 -0.9856268 -0.83955634
-1.0478543 0.39644855 -0.12646556 0.4570726 -0.4285393 0.06369413 -3.4409304 -0.30932778
-0.033157706 0.058917165 1.0455552 0.3946213 1.0240952 -0.19988851 0.32747245 0.26868284
0.7459514 -0.05298854 2.1091347 0.14877313 0.0010865033 0.15395918 -0.40066326 0.29496777
0.07511237 0.310753 -0.07814789 0.024589911 -0.7175425 0.25045717 0.57242304 0.24565196
0.24066836 0.13428256 0.32924905 0.4162366 1.8345349 -0.10968655 0.24197519 -0.06930144
-0.49214336 -1.3594655 -0.50844026 0.3892781 -0.057136357 -0.18137132 -0.03412223 -0.085268885
-0.09458694 -0.16721904 0.013188273 -0.30918533 -2.484584 0.4253895 0.3300674 -0.23585872
-0.3229906 0.06494981 -0.9213419 -1.2628696 -0.17872635 0.12226772 -0.1150105 0.18317774
-0.99204236 -1.0830135 0.024545623 0.2663759 -0.2849652 -0.06272942 -0.5387328 0.050786223
-3.2001379 -0.055200785 0.33846366 0.038506005 0.96309966 0.61834055 1.0364606 0.09422535
-0.25655055 -0.39097023 0.7002616 -0.072289005 0.83561254 0.2482158 0.0028842092 0.23763782
1.0963831 0.3373685 0.9641881 0.25513983 -0.21332459 0.16761214 0.7870211 -0.43899754
-1.5319346 -0.191826 -0.09138504 0.3812493 -0.041907635 0.13969713 -1.1321977 0.053857416
-0.33258748 0.20480111 0.67208296 0.008022518 1.8916442 -0.007854849 0.012212306 0.2358713
-0.30743304 0.059577405 0.08802159 -0.006172091 -0.2281363 0.011617067 0.7987877 -0.26903135
-0.65128917 -0.14272758 0.39155424 -0.022054207 -0.25394797 0.17563263 -0.44626397 -0.14653865
-0.04948193 0.10409183 -0.34294435 -0.22875276 2.6636038 0.027706861 -0.16928993 0.060437825
1.2398515 0.07817449 -0.74846894 0.38228762 0.074863166 0.52766514 1.4656308 0.29067832
-0.9225161 0.33810198 0.013895482 0.0039160233 1.0865542 0.5853934 -0.9013846 -0.38219467
0.12933165 0.29314998 0.46585426 -0.85581553 -1.7378329 -0.14984912 0.23343372 0.34326783
0.7964371 0.53408664 -0.17619805 -0.35720584 0.16447347 0.006666261 -0.17081104 -0.012577152
2.9348385 0.10483897 -0.025421977 0.089535385 0.907927 0.0314596 1.5367615 -0.06410712
0.39933014 0.3429125 0.82959664 0.28995156 1.9926382 -0.07917979 0.12947762 0.04728895
0.759756 0.3441033 1.8171825 -0.20638318 0.2456106 0.2410214 1.1013509 -0.20237438
-2.7260005 -0.34554785 0.1637643 0.032772813 0.42675114 -0.10021407 2.029156 0.0015085936

fc1.bias f4 [100]
00000000: 02a4 09be d968 bb3f bbbc 9e3f 4055 be3f
00000010: a420 12be 31b8 aa3f a5e0 933f 3081 803f
00000020: 106e b33f 2ea4 bc3f 476b c03f d2a7 fd3e
00000030: 4f3b 2dbe af5e 9abe b93e c6be 9bbd 853e
00000040: 12eb c63f e524 97be 542d ab3f c7c8 c43f
00000050: 1dcc ac3f 57e8 c53f c553 5a3f 014a 5d3f
00000060: f91d e33e ef61 ac3f 7162 30be 5886 71bd
00000070: 1d11 94be d4b9 ae3f 9c9b b7be 2a85 05be
00000080: 5196 823f e266 cfbe 812f 9b3f 5419 c03f
00000090: e59f af3f 90c0 3bbe b96b 04bf 39ec 9abd
000000a0: 3729 d1be 726c 993f d129 d3bd 2832 47be
000000b0: 9bc2 7b3f 6b7e f1be 5186 9d3f 3653 e23f
000000c0: a100 e0be 89a6 8a3f c3cb b8be 25df d8bd
000000d0: 1894 823d aaf6 bb3f 39af bdbe 620b 903f
000000e0: 142d 75be 28c5 e5bd 73b3 873f 1e36 83be
000000f0: 3c07 913e d0b5 10be 2a4f 9abe 3a24 643f
00000100: adca 89be d17a 743e aa35 b3be 202a 03bf
00000110: 8878 acbe 5589 ed3f 8c29 cfbd 6687 62be
00000120: 7abf 8c3f 5819 fdbe 16ab c9be f239 553e
00000130: f29a 933f 26c2 a43f 44fe b6be 0e4f 09be
00000140: 5e1b a6be a84c 1e3f ae20 873f b3e9 7c3e
00000150: cedf 6a3f 5c37 8e3f ce88 86be 369a 453f
00000160: a1ca 5a3e a684 913f e4a4 d3be a311 9e3f
00000170: 688f 77be 4379 db3f 7e33 963f 61e6 483f
00000180: f8cb edbd f0b2 4abe 8a6e 573f df34 d43f
-0.1344147 1.4641372 1.2401346 1.4869766 -0.14270264 1.3337461 1.1552931 1.0039425
1.4017963 1.4737604 1.5032738 0.495421 -0.16917156 -0.30150363 -0.3871973 0.2612122
1.5540488 -0.29520336 1.3373208 1.5373772 1.349979 1.546153 0.8528407 0.86441046
0.44358805 1.3467387 -0.17225052 -0.05896601 -0.28919306 1.365046 -0.35860908 -0.1303908
1.0202123 -0.4050818 1.2123872 1.500773 1.3720671 -0.18335176 -0.5172687 -0.07564587
-0.40851757 1.198622 -0.1031071 -0.19452727 0.9834382 -0.47166762 1.2306615 1.7681644
-0.4375048 1.0832072 -0.36092958 -0.105894364 0.06375903 1.4684651 -0.37047747 1.1253474
-0.23942977 -0.11219245 1.0601639 -0.25627226 0.28325832 -0.14131856 -0.30138522 0.8911778
-0.26912442 0.23874976 -0.3500188 -0.5123615 -0.33685708 1.8557535 -0.10115346 -0.22121963
1.0995934 -0.49433398 -0.3938834 0.20822886 1.153166 1.2871749 -0.35740864 -0.13409063
-0.32442755 0.6183572 1.0556848 0.24698524 0.9174775 1.1110644 -0.2627625 0.7718843
0.2136636 1.1368606 -0.4133674 1.2349132 -0.24175799 1.7146381 1.1734464 0.7847653
-0.116111696 -0.19794822 0.84153044 1.6578635

fc2.weight f4 [100, 100]
00000000: 192e 283d e731 58bd f187 b1bd 21ad 91bb
00000010: 9b45 abbd adc4 90bd d745 f23c d55b d13c
00000020: 9556 513c 04bf 05bd 145d 353d 3825 383c
00000030: 4d66 b1bc 8067 d2bc 170c 71bd efb8 bdbd
00000040: 18f1 b9bd 430f a3bd 9805 43bc 1eff 4c3d
00000050: 7237 fa3c 05b0 5f3c ef65 c5bd e7b3 bbbc
00000060: 8746 a73d 4913 d33c d4a0 c73c 2dc1 7ebd
00000070: 7e8a 643d 6ac4 043b 6045 77bb 293a b03d
00000080: 3d76 46bd e05e e4bc 6848 df3c b9c8 c1bd
00000090: ae6d 393d d5fa aabc e694 cabd 81c5 813c
000000a0: 70c0 bd3d 7e38 803b 9435 3ebd 1051 60bc
000000b0: 088d bfbd f055 1fbc a919 cf3c d175 43bd
000000c0: bbd7 3dbd 678b 573d cad3 9cbd fd2c b63d
000000d0: 6229 eab8 07e7 9dbd be5e 7d3d 5094 4dbd
000000e0: ced6 483d 2b6f 983c cc0c 44bd 83c0 c43d
000000f0: 3690 52bc 4365 aebd 66ed 053d a062 cfbd
00000100: 66ae 063d cd7f 8abd 9653 9ebd 803b 563c
00000110: 47ae 46bd bb77 823d c3c1 a13d 6bdf d93a
00000120: c3e9 37bd 4018 3cbd 3d19 ba3d fb27 67bd
00000130: 2c23 933d 1a4d 63bd 47a3 b93d 9d9a 1abd
00000140: c256 213d 517f 843d 7905 31bd 7e0c a93d
00000150: 65c0 56bc 9527 b13d 539c 1ebd 2a59 2cbb
00000160: 926d 95bc 3e50 243d d29e 253d 620c b5bd
00000170: a776 34bd cb99 26bd e74d 7e3d 39b9 203d
00000180: ba97 91bd 7cc5 a9bc db5e 183d 3ad8 cebd
00000190: 75c3 413d 320c f3bd 1b85 0b3d 416e c5bd
000001a0: b7c1 cfbb bbde 7a3c 17df c9bd 84d4 593d
000001b0: 1451 273d 4272 d6bd 98ae 4b3c e0fc c03c
000001c0: 272d 11bc fb7d 9cbd dc6e 113d 4b6c a1bd
000001d0: 3e86 1c3d a4b8 12bd bcf8 4fbd ce51 c83c
000001e0: 8447 0e3d ad90 8fbd a12d 92bd ed29 143d
000001f0: 78d4 f73c 3310 adbb b7fe 96bc b73a 97bd
00000200: 8043 943c 1402 00be dbc6 af3d 26f7 5a3d
00000210: f317 b93c d38e 053d 2fbb ff3c 4f72 41bc
00000220: e7b7 a9bd eb9d afbc 21bb 8cbd fb72 cfbd
00000230: 1887 813d 43c9 ad3c 714a f13c 925f 523d
00000240: 46e0 5f3d cdb7 133b 9d33 0e3b c244 a03d
00000250: 5cfd 6539 4043 88bd f217 fe3c 1960 45bd
00000260: dd74 143d d182 75bb 4010 4fbb dba6 f43c
00000270: 72f6 173d 9f51 903d b51d 503d aef6 1bbd
00000280: 9280 533c 394c e73c d69e 303d d23e 9dbd
00000290: a002 de3b c546 8f3b 34b9 9c3d d8f8 2b3d
000002a0: fa9e a2bd 419a 1e3d 56da 543c df8b 43bd
000002b0: ad73 fdbd ae53 8cbd 17df 603d f4e3 7e3c
000002c0: c171 f9bc 1fc7 98bd 7ca5 9bbd 9234 5c3d
000002d0: e961 f5bc dac2 033d 6902 053b f252 93bd
000002e0: c5db 7dbd 5f8a 623d 1b98 c63d 8835 5fbd
000002f0: d0ce 4ab9 0e3a 853d 1812 ad3d a204 3e3d
00000300: 0005 5cbc 5a0b 14bd ef4c 7f3c 213b 323d
00000310: b51f 9dbd 1ffc ea3c 1c0b 99bd 9f40 1d3c
00000320: bf80 23be 92fa 2a3f 3f90 253f 2483 013f
00000330: bc00 863e d377 bd3f df6d 413f 76ac 3b3f
00000340: 3f00 223f cd04 f63e 35d9 0b40 321f 123f
00000350: 9ea0 963e 6740 c4bd 868c c63e 2d22 073f
00000360: bc08 653f b4a1 dfbc 604c f53f b2d2 053f
00000370: 6331 323f 8a32 1140 6c3c 683f c961 1b3f
00000380: 6c2b 283f 99ac 3a3f b8a2 473d b825 013f
00000390: 2466 5e3d cea1 3e3f 04ec e9bd 40e9 ef3e
000003a0: 99bc 2d3f 09d3 1e40 5fd8 543f 3d2e 233f
000003b0: 565c 4e3f aaf7 843e 7a04 023f 8524 e93e
000003c0: eae3 cf3e 6e62 0040 cf34 e73e 6a79 56bd
000003d0: a94d 303f a107 e03e ab1d 0240 4e33 5a3f
000003e0: 65fd 0e3f f7e7 4b3f c17b 05be e75e 9f3e
000003f0: d8af 323f da6f 3f3f dda3 d8bc b14f 603f
0.041059587 -0.052781966 -0.08668507 -0.0044456874 -0.083628856 -0.07068763 0.029574318 0.025556484
0.01277699 -0.03265287 0.04427822 0.011239342 -0.021655226 -0.025684118 -0.05884942 -0.09263789
-0.09079188 -0.07961895 -0.011903189 0.050047986 0.030544017 0.013652806 -0.09638583 -0.022912933
0.08167749 0.025766032 0.024368681 -0.062195946 0.05579614 0.0020258673 -0.003773056 0.08604843
-0.048452605 -0.027877271 0.027256206 -0.09462113 0.045270614 -0.02087156 -0.098916814 0.015841248
0.0926522 0.0039129844 -0.046437815 -0.013691202 -0.093530715 -0.009725079 0.02528079 -0.04771978
-0.046348315 0.05262318 -0.07657583 0.088952996 -0.00011165698 -0.077100806 0.06185793 -0.05019027
0.04903298 0.018607697 -0.047863767 0.09607031 -0.012851765 -0.08515408 0.032697104 -0.10126233
0.032881163 -0.06762657 -0.077307865 0.013075709 -0.048506048 0.06370493 0.07898285 0.001662237
-0.044900667 -0.045921564 0.09086845 -0.056434613 0.07184443 -0.05549345 0.09064346 -0.037745107
0.03938938 0.06469596 -0.04321811 0.08254336 -0.013107394 0.08650128 -0.0387233 -0.0026298263
-0.018240724 0.040115587 0.040434666 -0.088402525 -0.04405847 -0.040674012 0.062086012 0.039239142
-0.07109018 -0.02072405 0.037199836 -0.10099836 0.047305543 -0.118675604 0.034062486 -0.0964017
-0.0063402313 0.015311892 -0.09857004 0.053181186 0.040848807 -0.10471012 0.012431763 0.02355808
-0.008860863 -0.07641216 0.035506114 -0.07881983 0.03821396 -0.03582062 -0.05077432 0.02445307
0.03473617 -0.070100166 -0.07137609 0.036172796 0.03025268 -0.005281472 -0.018432004 -0.07384246
0.018098593 -0.12500793 0.085828505 0.053458355 0.022594428 0.03260691 0.031217186 -0.011807038
-0.0828703 -0.021437606 -0.068716295 -0.10129353 0.06324595 0.021214133 0.029454442 0.051360674
0.054657243 0.0022539974 0.0021698244 0.078256145 0.00021933526 -0.06653452 0.031017277 -0.04818735
0.036244262 -0.0037462006 -0.003159538 0.02986472 0.037100263 0.07046818 0.05080958 -0.03807705
0.0129090715 0.028234588 0.043120228 -0.07677998 0.0067752153 0.00437245 0.07652512 0.041985363
-0.079404786 0.038721327 0.0129915085 -0.047740813 -0.12375579 -0.06851898 0.054900255 0.015557278
-0.03044975 -0.07459854 -0.07599923 0.053761072 -0.029953914 0.032168247 0.0020295626 -0.07193555
-0.061977167 0.055307742 0.096969806 -0.05449441 -0.00019341265 0.06505214 0.08450717 0.046391137
-0.0134289265 -0.03614364 0.015582307 0.04351342 -0.07672063 0.028684674 -0.07472822 0.009597926
-0.15967081 0.6678859 0.6467323 0.5059073 0.26172435 1.4802192 0.75558275 0.7331003
0.63281626 0.48050538 2.1851323 0.5707885 0.29419416 -0.09582596 0.38779086 0.52786523
0.8946645 -0.027298786 1.9163933 0.5227462 0.6960661 2.2687097 0.90717196 0.60696083
0.65691257 0.72919613 0.048739165 0.5044818 0.054296628 0.74465644 -0.114219695 0.46857643
0.678659 2.4816306 0.83142656 0.6374243 0.80609643 0.25970203 0.5078808 0.45535675
0.40603572 2.0060077 0.45157477 -0.052361883 0.688685 0.4375582 2.0330608 0.85234535
0.558554 0.79650825 -0.1303549 0.31127092 0.69799566 0.74780047 -0.026445324 0.876216

fc2.bias f4 [100]
00000000: b591 c3bd e8ad 68bd a6b8 323f 1c09 063e
00000010: ea50 0b3f 0bd5 223f 4a8f 213f 8558 053d
00000020: a859 0c3f bf5c 0a3f ba18 24bd 3c8d 043f
00000030: 1b36 5a3e 1da1 94bd e7b1 8dbd 2e79 603e
00000040: 0566 3e3d 0cc8 043f 1089 94bd 44de e23e
00000050: e1dc 6fbd 00fc 193f 05da 22bf 41b9 013f
00000060: b945 04bf fdab 553f 4e82 2e3d 624f 223f
00000070: 10b2 8abd 6800 f13e c5da c1bd d925 183f
00000080: 45cc d43e 3ced 403d bfd1 0fbf b826 0c3f
00000090: 634b 913b 0d5d 1e3f 09d1 d93c 1cbc a9b9
000000a0: 1224 ce3e cc52 86bd e5cb 733f 1668 02bf
000000b0: 8c2f 903d 9073 1a3c e3bc 8f3d 3a9d e73d
000000c0: bdbb d43e dfe5 00be 27ae 1b3f 6136 0dbd
000000d0: 566f 053d a462 343f 4a28 0c3f ec6d ae3d
000000e0: f833 d5bd 08fd 33bd f371 75bd bd18 193f
000000f0: f503 433d 98e6 04bb 7525 89bd ba68 123f
00000100: 5ae0 823f 56e4 01bd 22fc d4bd 3910 9d3d
00000110: 1f12 e03b ba14 713d cbab 663f 1e2c 92bd
00000120: df66 273c 442a e33e dc85 dd3e 1dd4 1dbf
00000130: e799 e23e 0a5f 963c 9344 7f3e 16a0 f53e
00000140: d3f9 0f3f ac84 623f 892d 1e3f 7e7f 27bd
00000150: 2eb3 f03e f57a f23e ddc4 4e3d f768 9b3f
00000160: c39a 1d3f 9f17 883f b28f 8dbd 1458 313f
00000170: d0c0 243f e1fb 2c3e c6a2 253f 506b 58bc
00000180: f0f8 033c d3fe 3d3f a206 a2bd d2e8 a33f
-0.09549276 -0.056806475 0.69813 0.13089412 0.5442034 0.6360633 0.63109267 0.032555122
0.54824305 0.5404777 -0.040062644 0.51778007 0.21309702 -0.072572924 -0.06918698 0.21921226
0.046484012 0.5186775 -0.07252705 0.443102 -0.058560256 0.60150146 -0.6361392 0.506733
-0.5166889 0.8346556 0.042604737 0.6340238 -0.06772244 0.47070622 -0.09465555 0.5943275
0.41562095 0.047101244 -0.5617942 0.5474658 0.0044340356 0.61860734 0.026588934 -0.00032374344
0.40261894 -0.06558761 0.95232993 -0.5094007 0.07040319 0.009426966 0.07018449 0.113092855
0.41549483 -0.12587689 0.6081261 -0.034475688 0.03257688 0.70463014 0.54748976 0.0851706
-0.10410303 -0.04394248 -0.059923124 0.5980337 0.047611196 -0.0020279046 -0.066965975 0.5719105
1.0224717 -0.0317119 -0.10399653 0.0766911 0.0068380977 0.058857657 0.90105885 -0.07137321
0.0102173975 0.44368184 0.4326619 -0.61651784 0.44258043 0.018355865 0.24928503 0.47973698
0.56240577 0.8848369 0.6178823 -0.04089307 0.47011703 0.47359434 0.050480712 1.2141408
0.6156427 1.0632209 -0.06912173 0.6927502 0.6435671 0.16892959 0.647015 -0.013209179
0.008054957 0.74216956 -0.07911421 1.2805426

fc3.weight f4 [2, 100]
00000000: 6d91 dd3b 7433 d1bc c0b9 d1be e19e 733f
00000010: a2dc 3ebf 8b15 24bf eef4 0abf feba 353d
00000020: 9671 35bf e587 54bf 14a2 bfbc 87cf 1ebf
00000030: 6ded 943f bec5 833c 707f aa3d 3ee4 923f
00000040: 8e17 8c3d ab29 0bbf 2584 8ebd 85eb 30bf
00000050: f119 123d eacb 19bf bd85 3ec0 8f34 29bf
00000060: 3d74 32c0 45b0 8b3e 5da8 22bd 0d66 03bf
00000070: 9946 573b 5b7f 2bbf e34f 4dbd 9dc8 36bf
00000080: 78d2 45bf 5e37 a4bc 2510 3fc0 790f 2abf
00000090: 4cca 363d 3b02 25bf 08a2 bb3c 07df 14bd
000000a0: 942b 38bf 42fb 8cbd b79c aebd d812 33c0
000000b0: 5bdf 9e3f 0ff2 be3d 22c3 afbc 3b26 03bd
000000c0: 4eee 46bf f5c2 bebc c691 1cbf 90c3 793d
000000d0: 63bc a0bd 5063 03bf e04a 3bbf 7e84 aa3d
000000e0: a82d 443d 3da8 0a3b d06c 39bc e5c9 08bf
000000f0: a2e1 cc3b 41d2 ffbc 3fa3 873d e205 30bf
00000100: bf0c 79c0 5788 ac3d f321 d2bc 023b 633d
00000110: 299e 9f3d 11c0 9fbd a60e 38be caa2 3e3d
00000120: fe46 77bd fc74 29bf 8bb8 3cbf f72d 34c0
00000130: 0a63 3abf bed3 b73d 9b49 453f 52a9 3dbf
00000140: de6e 34bf 31cb 553e 9008 0abf e40f 473d
00000150: 999e 3dbf 8ab7 28bf 456f b63d 02ad 7bc0
00000160: 1401 36bf 224f 7ac0 ba2b 5dbd 842b 06bf
00000170: d2d5 13bf 1f0f 363f d122 e0be 22e3 8a3d
00000180: c747 5dbd d9d7 e7be 6117 a33d a8a6 86c0
00000190: de1d a7bd 1df8 823d 5bbc 73bf 1f84 03be
000001a0: 1bf2 74bf 1830 60bf cd2b 76bf 0452 e5bb
000001b0: 7169 68bf 8469 5bbf d25d 613c 00a9 69bf
000001c0: da17 6a3f 8481 333d ca5c 8abd 8a10 6e3f
000001d0: 617c 183d 1263 76bf b4ea 973c b188 6abf
000001e0: 3289 c1bd a753 5cbf a182 ac3e 518b 6ebf
000001f0: 52f1 1f3f bc9d 65bf dd35 96bd 9942 65bf
00000200: b163 bc3c 7290 73bf af03 c9bd ec2c 61bf
00000210: ea94 6ebf d739 233d 5fb2 c43e 554b 65bf
00000220: cb1c 863b ebc6 59bf 4064 61bb 8fe0 073d
00000230: 54bd 65bf 2ee3 bcbc c02a 7ebf 4566 1a3f
00000240: 334e 7c3f e84d 543c b7c0 9b3d a265 babd
00000250: 3acd 5fbf bd9f 723c 9883 5fbf 7f73 813d
00000260: 50e6 6cbd d776 73bf ecd0 5cbf c5f8 813d
00000270: 69d5 33bc a066 8c3d d270 313d 68e9 5ebf
00000280: a4a1 dd3c ae74 8a3d 5fd6 1f3d 70f8 6cbf
00000290: d0c7 ebbe f21c bebd 4061 26bb 2a21 28bd
000002a0: 8da0 aa3d 871b ac3d fa5b 78bf b8a2 8bbd
000002b0: 438f ac3d 1933 75bf fa21 64bf 7d87 143f
000002c0: 3e00 73bf b390 0a3d 8b4a 18bf 59b8 6ebf
000002d0: 13c0 5dbf b9a2 7bbf b62b 60bf 000a 573d
000002e0: 94f7 71bf 89b3 5cbf ab26 b93d d97c 01bf
000002f0: f3d9 5ebf 6d35 0fbf 009c 5239 4b5a 76bf
00000300: debd 62bf 0270 eebe 6a29 66bf 8297 303d
00000310: 402f 213b 045c 77bf 0562 803d c552 adbe
0.006761721 -0.02553723 -0.40962029 0.95164305 -0.7455541 -0.6409537 -0.54279983 0.044367783
-0.70876443 -0.8301986 -0.023392715 -0.6203541 1.1634957 0.016085502 0.08325088 1.1475904
0.0684043 -0.54360455 -0.06958798 -0.69109374 0.03566927 -0.60076773 -2.9769127 -0.66095823
-2.7883446 0.2728292 -0.039711345 -0.5132759 0.0032848476 -0.66991204 -0.050125014 -0.7139986
-0.77274275 -0.020045932 -2.9853604 -0.6642986 0.04462652 -0.6445653 0.022904411 -0.036345508
-0.71941495 -0.06883861 -0.08525985 -2.7980251 1.2411913 0.09323513 -0.021455351 -0.03201888
-0.77707374 -0.023286322 -0.6115993 0.06097752 -0.07848432 -0.51323414 -0.73161125 0.08326052
0.047895104 0.0021157407 -0.011317447 -0.53433067 0.0062524835 -0.031228187 0.066229336 -0.68758976
-3.891403 0.08424442 -0.025650954 0.055476196 0.077938385 -0.07800306 -0.17974338 0.046541966
-0.060370438 -0.6619413 -0.7371909 -2.8153055 -0.7280737 0.089759335 0.7706544 -0.7408649
-0.7048167 0.20878293 -0.53919315 0.04859914 -0.74070126 -0.6590506 0.08907942 -3.9324346
-0.71095395 -3.91108 -0.05399678 -0.5241015 -0.5774814 0.7111682 -0.43776563 0.067816034
-0.05402353 -0.45281866 0.079634435 -4.207844 -0.081599936 0.0639498 -0.9520928 -0.12843369
-0.95681924 -0.87573385 -0.96160585 -0.0069983024 -0.9078589 -0.8570788 0.013755279 -0.912735
0.91442645 0.043824688 -0.06755979 0.92993987 0.037227992 -0.9624492 0.018544532 -0.91614825
-0.09449996 -0.86065143 0.33693412 -0.9318133 0.624776 -0.8969381 -0.07334492 -0.89554745
0.022996755 -0.9514228 -0.09815156 -0.8795917 -0.93195975 0.039850082 0.38417336 -0.8956807
0.004092788 -0.8506915 -0.003439203 0.03317314 -0.89742017 -0.023057546 -0.9928398 0.603123
0.9855682 0.012958027 0.07605117 -0.09101416 -0.87422526 0.014808592 -0.8731017 0.06320857
-0.05783683 -0.9510321 -0.8625629 0.06346277 -0.010976174 0.06855512 0.043320484 -0.870749
0.027054615 0.06760536 0.0390228 -0.92566586 -0.46050882 -0.09282865 -0.0025387555 -0.041047253
0.08331404 0.08403688 -0.97015345 -0.068181455 0.084257625 -0.95781094 -0.89114344 0.5801924
-0.94922245 0.033829402 -0.59488744 -0.9325004 -0.86621207 -0.9829517 -0.875667 0.05249977
-0.945184 -0.8621145 0.090405785 -0.5058113 -0.87051314 -0.55940896 0.00020085275 -0.96231526
-0.88570964 -0.4656983 -0.8990694 0.04311324 0.0024594814 -0.9662478 0.06268696 -0.3385221

fc3.bias f4 [2]
00000000: 7fed 4dbe c669 60bf
-0.20110129 -0.876614
