wi_output/whittle_index_network.pth (torch, 45844 bytes, 5 tensors)

fc1.weight f4 [100, 5]
00000000: be00 dbbe caf7 bb3e bed2 24be 44e7 873e
00000010: 5655 933e 227d 3cbe 90ca 22bd 0123 e2be
00000020: 7088 6abe 8099 af3e 2030 5e3d d575 58be
00000030: 5896 3ebe a2eb bf3e 6044 1e3e 20f7 25bc
00000040: 3ba0 9abe 5457 0e3e d01c 3f3e 30c5 cf3e
00000050: 54ee 6c3e 2524 d9be 80da f93d 9ab9 0cbe
00000060: 6b06 76be c821 513d f463 30be be39 963e
00000070: 84de 55be c202 dc3e 4b04 c1be 185b f53d
00000080: 0086 0d3e c6b2 9ebe 078c ddbe 0830 aebd
00000090: 167f 08be c0eb 623c c09f 553e 48a6 0e3e
000000a0: 5c08 c33e 7005 debd 2c67 d9bd 9cbe bbbd
000000b0: d063 8abe 4455 b83e ca1f cd3e 7088 f93c
000000c0: 6038 d2be b81a 813d f07e dcbc 707f 82bc
000000d0: 4097 d13e b0bc e13e 0410 ba3e 689f 573e
000000e0: 480e af3d 0409 91bd c063 55bd 9c42 533e
000000f0: fa0b 2ebe d898 dd3e dee5 8f3e 7852 4dbd
00000100: c0d7 ed3b a60f 62be 39b1 86be 5ca3 883e
00000110: 60d0 6cbd 88d9 3abe 40c9 f5bc 9017 a9bc
00000120: d08c ebbc c507 cdbe 004d 91ba 955e a6be
00000130: c0a6 f93c e062 07be 4664 2ebe c093 48be
00000140: 4e31 cabe 2053 f93c 4c64 9dbe bcf0 433e
00000150: 2692 b0be 1185 a8be 96eb c53e 18b6 ccbe
00000160: e8b0 9c3d 2a05 9dbe d020 f6bd 6a91 a0be
00000170: ee92 a0be c21c a0be 3c46 e4bd b018 803d
00000180: f8cd d83e 0ab5 91be e0c8 1a3c 3e25 d1be
00000190: 007e 36bc d600 cb3e 1ec0 d43e 083f 793e
000001a0: b013 c2be d2c9 ce3e 20d9 dbbd 30e8 063d
000001b0: d511 82be 7845 f8bd 200a a03c c88a ddbd
000001c0: 95ed a0be 845b 923e 2691 d13e 003d c43e
000001d0: 6045 b33e 3e9b b03e c0d5 393e fc75 bd3e
000001e0: 2816 2c3e 9407 0f3e e3ba 4abe 785d 47bd
000001f0: 3a2c dc3e 2c75 1bbe 90f9 31bd ba33 a9be
00000200: d4a6 dd3e 4044 c3bd b0a2 c93e 1c65 6bbe
00000210: 80a0 64bb a390 c5be e0a8 193e 48e9 123e
00000220: d009 18be 6437 93bd 2c65 d0be b0c7 c43e
00000230: 6873 c4be 74f3 783e 84cd 86be d93b 7ebe
00000240: 2749 cebe f0e2 a03c 9210 dfbe 6040 50be
00000250: f432 d7bd 547e 6b3e 00ca 1f3d 9c67 a13e
00000260: 6489 a0be 409a 2abe 2ab6 cbbe 8059 2fbd
00000270: 16fe 933e a00a e83c 9236 a7be caf3 92be
00000280: e8fc 043d 8032 60bc 7c1b 353e 86aa a03e
00000290: 3a33 99be c033 ca3e 20e3 6abe cecd 2abe
000002a0: 14b3 f2bd 99ce 5dbe 669d e13e a846 153e
000002b0: c542 9abe 700d 373e b6bc c93e c06d 29bd
000002c0: d046 793d 79e3 d3be f11d e4be 24d2 4f3e
000002d0: 30b3 ab3e a073 63bc 7c74 aebe e806 9c3e
000002e0: 6490 393e a05d a7bc 4726 7cbe e0f5 6f3e
000002f0: 5bda d4be 0020 633e 7818 413d 7ca8 4cbe
00000300: 80ec 693d 45a9 5ebe e0f2 a43e 3e07 19be
00000310: dcee b23e 58f6 103d b48d 133e ba10 b2be
00000320: 0097 19bb 5495 74be a074 fa3d f8b1 b33e
00000330: 0cde a13e 40f9 88be 6624 c83e 1873 6e3e
00000340: f0d7 5e3d 6c0a 98be 4d87 68be 550c 6fbe
00000350: 64db 5c3e dcdd 543e 4c13 ad3e e838 e6bd
00000360: 9cd0 3ebe 7e52 b5be a885 fa3d 3e23 9abe
00000370: 5c30 a9bd 2c0c ddbe 8849 4a3e dabe 8cbe
00000380: 5cdd 81bd b870 bc3d b099 48be 5023 593d
00000390: a0dd 113e fe68 e3be 7cba 193e 009b 3b3b
000003a0: 5c71 643e 84cf 9b3e 16b8 7cbe 5eaf a73e
000003b0: 3c5a d93e 282a 953d 9893 253e fc3b d2be
000003c0: 88bf 123e 222d e1be 3026 81bd cc8c a8be
000003d0: 80e1 473c 4279 b1be fc0c aebd 3247 8bbe
000003e0: 2873 c5be e4dc 623e 8084 7a3c 382f 01bd
000003f0: 8452 f8bd 60f8 983d 6837 45bd 3a34 bb3e
-0.42774004 0.36712486 -0.16096017 0.2654363 0.28776044 -0.1840711 -0.03974396 -0.4416733
-0.2290361 0.342968 0.054245114 -0.211387 -0.18612039 0.3748446 0.1545577 -0.01012972
-0.3020037 0.139005 0.18663335 0.4058013 0.2313779 -0.4241039 0.12199879 -0.13742676
-0.24025886 0.051057607 -0.17225629 0.2934093 -0.20885664 0.42970854 -0.37698588 0.119802654
0.13820648 -0.30995768 -0.43270895 -0.08505255 -0.1332973 0.0138501525 0.20861721 0.13930619
0.38092315 -0.10840881 -0.106153816 -0.09167215 -0.27029276 0.36002553 0.40063316 0.030460566
-0.41058636 0.06303924 -0.026915997 -0.015929908 0.40935707 0.4408927 0.36340344 0.21056902
0.08547646 -0.07081798 -0.052097082 0.20630878 -0.16996756 0.43280673 0.28105062 -0.050127476
0.0072583854 -0.22076282 -0.26307085 0.26687133 -0.05781591 -0.18247044 -0.03000319 -0.020641118
-0.028753668 -0.4004499 -0.001108557 -0.32494035 0.03047502 -0.13221312 -0.17030439 -0.19587612
-0.39490741 0.030435145 -0.30740583 0.19134802 -0.34486502 -0.32914022 0.386563 -0.39982677
0.0765093 -0.30668002 -0.12017977 -0.31360942 -0.31362098 -0.3127194 -0.11146209 0.06254709
0.42344642 -0.28458434 0.009447306 -0.40848726 -0.011138439 0.39649075 0.41552824 0.24340451
-0.37905645 0.40388352 -0.10734773 0.032936275 -0.2540423 -0.12122625 0.019536078 -0.10817486
-0.3143126 0.28585446 0.40931052 0.3832779 0.35013866 0.3449344 0.18147945 0.37004077
0.16805327 0.13967735 -0.19797854 -0.048673123 0.43002492 -0.15181416 -0.043450892 -0.33047277
0.43291342 -0.09534502 0.39381933 -0.22987789 -0.0034885705 -0.38586912 0.15005827 0.14346802
-0.14847493 -0.07188299 -0.40702188 0.384336 -0.38369298 0.2431162 -0.2632867 -0.24827518
-0.40290186 0.019639462 -0.4356733 -0.20337057 -0.105077654 0.22997409 0.039011 0.3152436
-0.3135482 -0.16660404 -0.39787418 -0.042809963 0.2890479 0.028325379 -0.3265882 -0.2870162
0.032467753 -0.013683915 0.17686266 0.313801 -0.29921895 0.39492607 -0.22938204 -0.16680071
-0.11850563 -0.21660842 0.44065398 0.14577734 -0.30129066 0.1787622 0.39401788 -0.04136443
0.060858548 -0.41384485 -0.44554093 0.20295006 0.33535147 -0.013882548 -0.34073246 0.3047402
0.18121487 -0.020430386 -0.24623977 0.23433638 -0.41572842 0.22180176 0.047142476 -0.19986147
0.05711031 -0.21744259 0.3221655 -0.14944169 0.3494786 0.03539118 0.14409524 -0.34778386
-0.002343595 -0.23885089 0.12229276 0.35096717 0.3161472 -0.26752663 0.3909027 0.23286092
0.054405153 -0.2969545 -0.22707863 -0.23344548 0.21568066 0.20787758 0.33803785 -0.11241323
-0.18634266 -0.354145 0.12232524 -0.30105013 -0.08261177 -0.4317335 0.19754612 -0.27489358
-0.06341049 0.09201187 -0.19589877 0.053012192 0.142447 -0.4441604 0.15012544 0.0028626323
0.22308868 0.3043176 -0.24679598 0.32750982 0.42451656 0.07283431 0.16169584 -0.4106139
0.14330876 -0.43979746 -0.06306112 -0.3291992 0.0121997595 -0.34662825 -0.0849857 -0.27202755
-0.3856442 0.22154576 0.0152903795 -0.031539172 -0.121251136 0.07469249 -0.048148543 0.36563283

fc1.bias f4 [100]
00000000: d362 e4be 800c f83d 43e5 b9be c14a 81be
00000010: 7897 fe3d 4d3d dfbe e82f 18be fcfe 29be
00000020: acf7 843e c89b b1bd 202f 693e 0020 923e
00000030: 5009 87be f47d 7f3e 86ae 8a3e 566a 34be
00000040: 70be 85bc ec45 48be e4da 3a3e 6e99 d13e
00000050: 8449 a6be 5c84 b0bd 7e24 22be c875 3f3d
00000060: 2cbc c7be 380f c73d b88a f3bd 3812 ea3d
00000070: 60e1 8e3e 10fb 943d 5815 4b3e 3ce3 acbe
00000080: f078 cebc 78f2 be3e 67b5 6dbe 8c57 dbbd
00000090: 5846 403d ca55 ddbe 4a65 bcbe 48a0 80be
000000a0: 968c 8c3e ac65 713e 139d 97be 20cc 4abc
000000b0: 6c92 793e 5ae6 63be e4d5 893e 1c73 3f3e
000000c0: baa4 98be 3873 d5bd b05f cf3e 50bc 433d
000000d0: dcfc 6c3e a8b9 3b3e 158b 55be 184e fc3d
000000e0: e03f 30bd 8027 aebb c067 2bbc 42a2 20be
000000f0: 5447 9fbe 0c82 90bd c237 b23e f198 96be
00000100: ac33 ddbe d8ad 453e bc14 94bd 1420 673e
00000110: f443 aebd 035a aabe fe9d a8be ecf8 c3be
00000120: dc0a df3e 0ace ce3e b080 f5bd 00e5 233e
00000130: c048 b6bc e8b8 72be a806 0bbd 9cbb 8bbe
00000140: fe1c c6be 68f3 1c3e 8cc5 843e 6895 bf3d
00000150: 2746 a9be a10c d0be 341a 5c3e 0c5b d9bd
00000160: b03a 8abc e292 ce3e 4230 4ebe b4d3 05be
00000170: 7c1f 3e3e 900e 2e3d 88a6 2fbe 383f 843e
00000180: d0f4 363e 6ace 64be 4012 803d b030 d93d
-0.44606647 0.12111759 -0.36307725 -0.25252345 0.12431234 -0.43601456 -0.14862025 -0.16601175
0.2597021 -0.08672291 0.22771883 0.2854004 -0.26374292 0.24950391 0.27086276 -0.17618689
-0.01632616 -0.19557923 0.18247563 0.4093737 -0.32477963 -0.086189955 -0.15834233 0.046743184
-0.3901075 0.097196996 -0.11891693 0.11429256 0.27906322 0.07274449 0.1983236 -0.33767116
-0.025204152 0.37294364 -0.23213731 -0.107100576 0.046942085 -0.43229514 -0.36796027 -0.25122285
0.2745101 0.23573941 -0.29612026 -0.012377769 0.24372262 -0.22255841 0.26920998 0.18696254
-0.29813176 -0.10422367 0.4050269 0.04778701 0.23143333 0.18332541 -0.20853837 0.12319583
-0.043029666 -0.0053147674 -0.010461748 -0.15686896 -0.31109107 -0.070560545 0.34808165 -0.2941356
-0.43203485 0.19304597 -0.07230517 0.2257083 -0.08509055 -0.33271798 -0.32933038 -0.3827585
0.43562973 0.4039157 -0.11987436 0.16005325 -0.022251487 -0.23703349 -0.033941895 -0.27291572
-0.38693994 0.15327227 0.25931966 0.09354669 -0.33061334 -0.40634635 0.2149437 -0.10613069
-0.016873688 0.40346438 -0.20135596 -0.1306904 0.18566698 0.042494357 -0.1715337 0.25829482
0.17866826 -0.22344366 0.06253481 0.106049895

fc2.weight f4 [100, 100]
00000000: 9978 b23d d26b 013d c4a4 8cbd 58c4 d2bc
00000010: 5833 833c c352 c2bd 726d c9bd 18f8 ad3c
00000020: 4867 c1bc 00b4 34bc a084 c2bc 3622 6e3d
00000030: 18fe 6bbc 7346 7cbd 2c87 8f3c 80ab a0bd
00000040: 20b5 d1bb 6239 543d a029 a43b 42fa 123d
00000050: 75ac c93d 9c59 d43c fca1 db3c 0d36 83bd
00000060: d0fd 0fbc ad1e 9ebd b8f3 e5bc 4e99 403d
00000070: ec64 d7bc 71a8 963d 0401 f33c 032b c4bd
00000080: af39 823d d908 943d 14a0 903c 9e35 8cbd
00000090: a3f0 cb3d a099 05bb f877 8abd a01d 3f3b
000000a0: b07e cabd a004 e2bc 86c3 1b3d 8062 c93b
000000b0: 9c83 d73c 667d 273d 34a4 96bc 2728 813d
000000c0: 9882 29bc e047 a13c 3a6d 063d fd08 3bbd
000000d0: 0e10 a8bd a025 cb3b 529c c4bd b30f 21bd
000000e0: c39f 24bd 0758 43bd 3f21 8a3d 6cce b53c
000000f0: a3d0 8a3d a80f 11bc 1bb4 c1bd 2915 a33d
00000100: f1cd ab3d 940d b23c 18e3 ad3c 902d c6bd
00000110: 3550 94bd a8ab 703c d216 033d ccaf a03c
00000120: af10 b73d 27c9 71bd c943 c13d 3db5 b53d
00000130: 0344 813d eb1c a8bd 60f5 a3bd b03f 32bd
00000140: 8929 9f3d 5a57 5fbd a30f adbd dd73 3cbd
00000150: 3ed2 aabd 7d8d a93d f09f 6bbc 21b9 c83d
00000160: 4e5e 7c3d e480 e23c a0ef 643b f65f 363d
00000170: 5737 b5bd c37c 65bd 50b5 b63b 7851 dfbc
00000180: 506c 8fbb 1de5 aebd 99d6 b23d 7076 1b3c
00000190: 006c 4dbc a2e9 093d b8fb f6bc c011 4f3c
000001a0: 69c1 c83d a789 b53d 1af6 1a3d b186 9c3d
000001b0: 96e5 8ebd f54c bf3d f191 bb3d 8e43 80bd
000001c0: 63ad 8fbd 0186 943d a2cb 183d 14c7 bfbc
000001d0: ae4d 92bd 2ac9 343d dafa 263d ac36 fdbc
000001e0: 90bb 0cbd 0044 deba 731c 61bd a0db 28bd
000001f0: 481e c5bd 18dc e6bc ba0f a7bd 73cc 50bd
00000200: b035 0bbc 7540 8bbd 48b7 b8bc 1abb 21bd
00000210: 0542 b1bd 3ff4 acbd 00d8 6bbd e2e9 293d
00000220: 47f1 ba3d de8c 043d 6df2 b9bd 0013 0cbd
00000230: 1808 62bc 00a2 353b 2cbe f43c bb13 c03d
00000240: 5a3c 163d 2cfc ccbc a4c2 f13c 00f6 4339
00000250: 03bf 72bd daf5 c5bd 6d23 9f3d c015 4f3c
00000260: 1975 943d 136c 5cbd 4da4 7cbd b445 bbbc
00000270: 15d5 bcbd abfc 9d3d d065 76bd 6a39 3f3d
00000280: 2e62 653d 00e4 5ab9 b005 afbd d8cd 9c3c
00000290: 0965 af3d 729e 3e3d d66a 023d 92fd 013d
000002a0: f7e3 38bd 5e27 703d 020e 543d 034e 66bd
000002b0: 10b6 73bc 67da 1fbd 6ec7 223d f6d7 483d
000002c0: da2b 603d 2634 183d 86c8 033d 0a52 1dbd
000002d0: 25b2 82bd 9f67 adbd 2781 62bd 2cba 9a3c
000002e0: e89b 523c e228 2c3d 8cba 10bd b743 8a3d
000002f0: cba5 90bd 5634 7e3d 1e4e 183d 5df9 60bd
00000300: 309d 67bd 158c 93bd be1e 1b3d 82ac 9fbd
00000310: eade a5bd 0860 cabc 51fb b73d 40e3 e9bc
00000320: c148 9b3d 80b4 113c c012 51bc d893 0c3c
00000330: 2042 c03c 68d2 bfbd 6024 e23b 057c 8f3d
00000340: 70da 79bc 8a64 5b3d 7033 13bc bdac 5dbd
00000350: f57a 833d 3273 4f3d 577f 63bd 2a52 03bd
00000360: 5c0d 18bd e097 c1bd ecbf c5bc ed86 b43d
00000370: 5b86 943d 4006 363b b480 b13c 3a25 47bd
00000380: 1fb0 873d ca32 0c3d 2485 ce3c 1d5b 60bd
00000390: 80de e6bc b002 bd3b 84a9 f33c d845 093c
000003a0: 697f a03d 00e7 b4bc bdec bebd 63da 75bd
000003b0: 67e1 b2bd ed11 80bd 609b 2b3b 19b2 c33d
000003c0: 0b15 cabd d20d 87bd 28b1 03bc eb0c b33d
000003d0: f81b cdbc 2d26 8a3d 2e54 1c3d 3928 913d
000003e0: 10d1 103c 6c7d 873c b2b3 333d 0265 723d
000003f0: 40e7 f2ba 6a75 85bd 20c3 3fbd c402 03bd
0.087144084 0.031596966 -0.06867364 -0.02572839 0.016015694 -0.09488442 -0.09835328 0.021236464
-0.023608819 -0.0110292435 -0.023744881 0.058138095 -0.014403842 -0.061590623 0.01752051 -0.07845211
-0.0063997656 0.051812537 0.005009845 0.035883196 0.09847347 0.025921635 0.026810639 -0.06406794
-0.008788541 -0.07720695 -0.028070316 0.047021203 -0.02629324 0.073563464 0.02966357 -0.09578516
0.063586585 0.0722825 0.017654456 -0.06846164 0.09958007 -0.0020385757 -0.067611635 0.0029161945
-0.09887445 -0.027590096 0.038028263 0.0061457753 0.026307873 0.040891074 -0.018388845 0.063064866
-0.010346077 0.019687593 0.03281901 -0.04566287 -0.08206187 0.0061995536 -0.09600128 -0.039321613
-0.040191423 -0.04769137 0.067446224 0.022193156 0.067780755 -0.00885383 -0.094581805 0.0796302
0.083888896 0.02173499 0.02122645 -0.09676659 -0.07241861 0.014689364 0.032004185 0.019615076
0.08938729 -0.059029724 0.09436757 0.08872459 0.063118 -0.08208641 -0.08005786 -0.04351777
0.07771594 -0.054526664 -0.08450248 -0.046008933 -0.08340882 0.0827894 -0.014381394 0.098009355
0.061613373 0.02764935 0.0034932867 0.04452511 -0.08848446 -0.056027185 0.0055758134 -0.027260527
-0.0043769255 -0.08539794 0.087323375 0.009488687 -0.012537956 0.033670075 -0.030149326 0.012638509
0.09802515 0.08864146 0.037832357 0.07642878 -0.06977384 0.0934085 0.091586955 -0.06262885
-0.07015493 0.07252122 0.037303574 -0.023410358 -0.071437225 0.044137157 0.040766574 -0.030909859
-0.03435856 -0.0016957521 -0.054958772 -0.041225076 -0.09624916 -0.02818112 -0.081572965 -0.050976228
-0.008496687 -0.067994036 -0.022548333 -0.039485075 -0.0865517 -0.08445024 -0.05757904 0.041482814
0.09128051 0.032360904 -0.09079442 -0.034197807 -0.013795875 0.0027714968 0.029875837 0.09378763
0.03667865 -0.025022589 0.029511757 0.00018688291 -0.059264194 -0.09666033 0.07770429 0.012639463
0.07248897 -0.053814005 -0.061680127 -0.022860385 -0.0922033 0.07714208 -0.06015569 0.046685614
0.056001835 -0.00020875037 -0.08546007 0.019141123 0.08564193 0.046537824 0.031840168 0.031735964
-0.04513928 0.058631293 0.05177117 -0.05622674 -0.01487495 -0.039026644 0.039740972 0.04903408
0.05472932 0.037159108 0.032173656 -0.038408317 -0.063816346 -0.0846703 -0.05529895 0.018887602
0.012854554 0.042031176 -0.035334155 0.06751197 -0.070628725 0.06206163 0.037183873 -0.05492531
-0.05654639 -0.07204453 0.037871115 -0.07796575 -0.08099158 -0.024703994 0.08983482 -0.028550744
0.07582236 0.008893132 -0.012760818 0.008580171 0.02346903 -0.09366304 0.006901309 0.07006077
-0.015249833 0.05356268 -0.008984432 -0.054119814 0.064199366 0.05064697 -0.055541363 -0.03206078
-0.037122115 -0.09452796 -0.024139367 0.088147976 0.07252189 0.0027774721 0.021667816 -0.048619486
0.06625389 0.034228124 0.02520997 -0.054774392 -0.028182268 0.0057681426 0.029743917 0.008378468
0.078368016 -0.022082806 -0.09322498 -0.060022723 -0.08734398 -0.06253419 0.002618514 0.09555454
-0.09867295 -0.06594433 -0.008037843 0.08742698 -0.02503775 0.06745563 0.038166218 0.0708775
0.008838907 0.016539298 0.043872543 0.05917836 -0.0018532053 -0.065165356 -0.046816945 -0.03198506

fc2.bias f4 [100]
00000000: e39a ccbd a0ee 58bd d911 a53d 482c e3bc
00000010: 0073 d8b9 d7ab 72bd d059 60bc 251b 8ebd
00000020: 4300 afbd 4768 a33d 4e13 7c3d 8e7d 153d
00000030: 1f63 ad3d 9839 0b3c ba87 c9bd 8416 d63c
00000040: 60a1 3dbd 544d efbc 8981 9d3d dfff c63d
00000050: 30b0 8ebd bed6 133d 007f 9dbc 8cd0 843c
00000060: 5025 73bc 4052 23bd 0ae0 493d efaa b9bd
00000070: 00b3 3dbd fe22 523d 4b5e a13d e0c0 f9bb
00000080: b038 6bbd b0e6 7bbd 43fc a33d 7d3e cbbd
00000090: 6053 7bbd f792 66bd 0d41 833d 3d0a bdbd
000000a0: 403c 793b 4040 48bd 98c1 66bc fe10 083d
000000b0: 111c 833d 102c 613c 2bd5 853d cd3e 66bd
000000c0: b89d ecbc 5043 83bd 40f3 b5bc c078 9c3a
000000d0: edc2 60bd 437d 96bd 777c c13d 670a 68bd
000000e0: 1098 1f3c 5073 253c fb4b 96bd deba 123d
000000f0: d889 cbbd 2ed2 173d d095 343c d0bb 52bd
00000100: aa1f 073d 288b a5bc 26a8 3a3d af88 c0bd
00000110: ba10 abbd d4c5 b0bc c880 923c d376 22bd
00000120: 00c8 44bc c743 5fbd 2132 ab3d 9082 333c
00000130: 4501 b7bd 7245 643d 1a6d a6bd 6a81 bdbd
00000140: 7302 3bbd 08d6 89bd 7668 86bd b077 a13b
00000150: a8fc 1a3c 1209 c4bd e688 8fbd 8baf 9f3d
00000160: 8511 a93d f6b6 97bd a8a8 a43c de95 7f3d
00000170: 2254 673d 3077 bdbb 92fd 593d 586a 573c
00000180: 317f c33d e7cd 61bd fb91 8c3d a069 a4bc
-0.0999048 -0.052961946 0.08060045 -0.027731076 -0.00041284412 -0.05924591 -0.013693288 -0.06938771
-0.08544972 0.07978874 0.061541848 0.03649669 0.084661715 0.008497618 -0.09840341 0.026133783
-0.046296477 -0.029211678 0.076907225 0.09716772 -0.06967199 0.036093466 -0.019225597 0.016212724
-0.014840439 -0.03987336 0.049285926 -0.09065806 -0.046313286 0.051302902 0.07879313 -0.0076218694
-0.05742711 -0.061499298 0.080070995 -0.09924028 -0.06135881 -0.0562925 0.06408892 -0.092304684
0.0038030297 -0.0488894 -0.014084242 0.03321933 0.064018376 0.0137434155 0.06534799 -0.056212235
-0.0288838 -0.06409323 -0.022210717 0.0011937842 -0.054873396 -0.073481105 0.09447568 -0.056650545
0.009740844 0.010098293 -0.07338711 0.03582274 -0.09938401 0.037065677 0.011022046 -0.051448643
0.03298918 -0.020207956 0.045570515 -0.0940107 -0.083528 -0.021578707 0.017883673 -0.0396641
-0.012010574 -0.054507997 0.08359171 0.0109564215 -0.08935789 0.05573029 -0.08126278 -0.092531994
-0.045656633 -0.06730276 -0.06562893 0.004927598 0.009459652 -0.095720425 -0.07008533 0.07797154
0.08255295 -0.07407944 0.020099953 0.062398784 0.05647672 -0.0057820305 0.05322034 0.013147913
0.09545744 -0.055128004 0.06863781 -0.020069897

fc3.weight f4 [1, 100]
00000000: 0f50 afbd 62ab 363d 9902 9e3d c267 ccbd
00000010: 8014 ea3b d722 9c3d fd24 79bd 60f8 d0bc
00000020: 2393 71bd 60b3 b7bc 782a a53c 867f a9bd
00000030: 025a 243d 2292 133d 28ee 07bc de00 143d
00000040: d8d4 01bc 60b0 593b d652 a1bd d4b3 88bd
00000050: b83a b8bc e67a 753d d0dc 67bd b4e9 f13c
00000060: 7344 35bd f49c 99bc 6dba 4fbd e220 463d
00000070: 14c1 81bd 6cf2 88bd 2c3c edbc 402c e6bc
00000080: 8f1c a03d 6bac 92bd 88a1 f1bc 0078 d438
00000090: 3834 82bc d363 a93d 60b9 9ebb c0e8 d0ba
000000a0: 24f5 fa3c aa51 9dbd d863 1d3c 0720 c5bd
000000b0: a0bb 32bd 8081 0f3c 51c6 b43d 0037 b0bb
000000c0: d82f 503c 193d 8c3d 4311 60bd d871 2d3c
000000d0: 1866 053c fb2b bebd bc6f e83c 6360 c8bd
000000e0: 1b1e 8e3d 8090 0fbd f282 5a3d d4d7 8fbc
000000f0: 006a 0abc e8c1 9dbd 7101 a33d f7b9 b1bd
00000100: 8f45 b2bd 38bf aebc aad9 42bd ddf2 8fbd
00000110: f065 703c 2347 37bd e723 b1bd e000 d6bb
00000120: 6e0c 643d 63ad a6bd ece1 bcbc 838a 53bd
00000130: 6a0d 773d a910 ad3d 2746 4fbd 997f 973d
00000140: 36a9 293d af28 c03d 185c 0fbc a75c 77bd
00000150: 08a6 a13c 6883 c9bd 10b4 733c 44ce e83c
00000160: 7889 c1bc 0d06 8a3d 737c 993d e441 8abd
00000170: adb0 6ebd e785 32bd 495e be3d 4f86 8f3d
00000180: e23b 1a3d a7b2 af3d 714f 863d e847 b1bd
-0.08560192 0.044597037 0.07715339 -0.09980728 0.007143557 0.07623833 -0.06082629 -0.02550906
-0.05897821 -0.0224244 0.020161852 -0.08276276 0.0401249 0.036028035 -0.008296527 0.03613364
-0.007924281 0.00332167 -0.07877128 -0.066749245 -0.022488937 0.05993166 -0.056607068 0.029530384
-0.04425473 -0.018751599 -0.0507149 0.048371203 -0.06335655 -0.06686863 -0.028959356 -0.028097272
0.07817947 -0.07161792 -0.02949597 0.000101312995 -0.01589404 0.08270993 -0.0048438758 -0.0015938506
0.03063447 -0.07681592 0.009606324 -0.09625249 -0.043635964 0.008758903 0.08826888 -0.0053776503
0.012706719 0.06847591 -0.054703962 0.0105862245 0.008142017 -0.09285732 0.028373592 -0.09784009
0.06939336 -0.035049915 0.053347535 -0.01755897 -0.008448124 -0.07703 0.07959259 -0.08678048
-0.087046735 -0.021331415 -0.047570862 -0.07028744 0.014672741 -0.044745576 -0.08649426 -0.006530866
0.055675916 -0.0813854 -0.023056947 -0.051645767 0.060315527 0.08450443 -0.050604012 0.07397384
0.041421138 0.0938276 -0.008749984 -0.060391095 0.01973249 -0.09839517 0.014874473 0.028418668
-0.02362512 0.06739435 0.0749444 -0.06750849 -0.05827396 -0.04358473 0.09295327 0.07008039
0.037654765 0.08578997 0.06558121 -0.08656293
